project/models/best_nn_model.pth (torch, 947553 bytes, 25 tensors)

network.0.weight f4 [512, 112]
000000 81 09 08 be 57 74 da 3a 16 7b 4d be 9a c8 75 bf
       -0.13284875 0.0016666752 -0.20066485 -0.9600922
000010 fd 57 63 bf cd 15 2e 3d d2 98 38 bd 59 b1 c6 be
       -0.88806134 0.04250126 -0.045067616 -0.3880718
000020 10 7f 04 3e 56 5e 5a 3d 06 ed 10 c0 25 38 1f bf
       0.12939095 0.053312622 -2.2644668 -0.62195045
000030 6c 23 5b bf 50 a1 44 be ef 55 4f be e9 e9 1d be
       -0.85600924 -0.19202161 -0.20247625 -0.15421261
000040 82 0b 27 3e e5 9a ee be 60 14 ab bd 1c 07 f1 bd
       0.16312984 -0.4660255 -0.083534956 -0.11768934
000050 be 13 c6 be b4 f7 ea 3c b0 7f 43 be fa 86 6d 3e
       -0.38686937 0.028682567 -0.19091678 0.2319602
000060 e2 9e 9e be ba 92 07 3e 64 81 d9 be 39 7b 4a 3c
       -0.30980593 0.13239565 -0.4248153 0.01235848
000070 ff b3 06 3e 13 b6 11 bd 98 16 8f bf 28 15 1b bf
       0.131546 -0.03557403 -1.117877 -0.60579157
000080 a7 98 ba be 4c e9 ca be 4d 72 92 bf 58 fb be 3d
       -0.3644459 -0.39631116 -1.1441132 0.09325284
000090 fd 56 ca bd 48 20 69 3e 00 97 a0 bd c5 d3 1d be
       -0.09879873 0.2276622 -0.07841301 -0.15412815
0000a0 72 36 63 3e ec 05 fa be 09 ed 05 3f 50 72 e1 3e
       0.22188738 -0.48832643 0.5231481 0.44032526
0000b0 13 b2 5e 3e c4 a5 07 bf 95 a3 42 be 85 48 f0 bd
       0.21747617 -0.52987313 -0.19007714 -0.11732582
0000c0 30 97 a2 bd 37 90 a8 bd 58 9f 64 be e3 86 5b 3f
       -0.07938993 -0.08230632 -0.2232641 0.85752696
0000d0 27 d1 00 bf 82 07 7c be 57 6b ae be cc 33 1c bf
       -0.5031914 -0.24612239 -0.3406627 -0.61016536
0000e0 bb 0f 97 3e fc 3b 8a 3e 6b 70 f9 3c 15 b2 ab bf
       0.2950419 0.2699889 0.030449113 -1.3413721
0000f0 0c 28 d9 bd 5d 9a f1 3d 37 f0 cd 3e 21 9a fc 3a
       -0.106033415 0.117970206 0.40222332 0.0019272008
000100 94 37 0e 3f b9 bd a0 3e a0 92 c2 bf e2 bc 43 3e
       0.55553555 0.31394747 -1.5200996 0.19115022
000110 7f de 12 bf d8 6b 5e 3f d4 7d 31 3f b0 cf 7b be
       -0.5737075 0.86883307 0.69332623 -0.24590945
000120 36 58 f7 be c0 8c 04 bf 0c f7 ff be 75 ca fe be
       -0.48309487 -0.5177727 -0.4999317 -0.49763837
000130 f9 38 02 3f 7f 44 84 3e a9 af 17 bf 18 15 3c bf
       0.50868183 0.25833508 -0.5925241 -0.73469687
000140 81 7f 73 bf 7b 46 a3 bf 1e 63 c2 bf 24 a9 ee bf
       -0.9511643 -1.2755884 -1.5186498 -1.8645368
000150 70 c7 61 be 11 cf a0 3d 5f 6c 8b bc ee 9f 46 3d
       -0.22048736 0.07851995 -0.017019449 0.048492365
000160 7e 93 9b 3d 22 77 dd 3e 93 e5 86 bd b8 9d 94 3e
       0.07596491 0.43254954 -0.065867566 0.2902658
000170 1d 36 95 bd d2 a6 b0 bd 7e 96 67 bd 14 70 01 bf
       -0.07285712 -0.086255684 -0.056540005 -0.5056164
000180 a2 14 08 3e 78 1e 81 bd 02 c9 f7 3a 6f ea e3 be
       0.13289121 -0.063046396 0.001890451 -0.44514796
000190 87 9d e8 3e ad a5 d8 bc 2a ca b0 3d d3 36 23 bf
       0.45432684 -0.026446188 0.0863231 -0.6375553
0001a0 6e 4b 43 3f 9a 80 6a 3e a3 6e 89 bf 16 40 5e bf
       0.7628697 0.2290062 -1.0736889 -0.8681654
0001b0 d2 dd e2 be 0c e2 0b bf 1b c9 97 be 3f 27 71 be
       -0.4430986 -0.54641795 -0.2964562 -0.23550127
0001c0 8c 3d a1 bc 68 81 7c be c6 ba 23 bd 85 c9 b8 be
       -0.019682668 -0.2465874 -0.039973043 -0.36091247
0001d0 18 1f ef be 80 c6 ff 3c cc 44 0e bd d7 2e f2 be
       -0.4670341 0.031222582 -0.03473358 -0.4730136
0001e0 7a ee 58 3e 11 a7 95 3c 54 8e eb bd b5 c6 95 bd
       0.21184722 0.01826814 -0.11501756 -0.07313291
0001f0 79 60 be 3e 76 27 d8 3e 9b 39 2a 3e bb f6 5f 3e
       0.37182978 0.42217606 0.16623537 0.21871464
000200 67 ea 41 bd 18 83 94 3d dd eb 9a 3d 31 bf 7b be
       -0.047342684 0.07251567 0.075645186 -0.24584652
000210 ce 31 9c be 96 2a 95 be 53 23 61 bd fe 42 cd 3d
       -0.30506748 -0.29134053 -0.05496533 0.10022543
000220 92 e1 95 3e 31 81 29 3b 83 3d 68 3d 36 36 b2 bc
       0.2927366 0.0025864358 0.056699287 -0.021754365
000230 8d a4 9a be 3c 75 72 bc 69 c6 cf bd d5 bd 74 bd
       -0.30203667 -0.014798459 -0.101452656 -0.05975135
000240 47 a5 57 be 27 9d 15 3d a1 25 52 be f9 74 4a 3e
       -0.21059142 0.036526825 -0.20522167 0.19771184
000250 f0 dd a0 bd 21 b0 bd be 71 34 c9 bd a5 dc 5d be
       -0.07854831 -0.37048438 -0.098244555 -0.216662
000260 18 b3 9b bd c6 a7 2e bb 88 68 09 3e d7 97 13 be
       -0.07602519 -0.0026650294 0.13418782 -0.14413391
000270 d9 5e 4f 3e 93 e8 bb be 88 ef db bd 6e 05 85 3d
       0.20251025 -0.36700878 -0.10739046 0.06495176
000280 b0 79 2a 3f 29 19 79 3e 02 fb 9d be 1c 36 bc 3c
       0.6659193 0.24326004 -0.30855566 0.02297502
000290 d5 b2 1c 3e 22 c8 d6 3e 9a b8 2e 3f b3 7f af bd
       0.15302594 0.41949564 0.6825043 -0.085692786
0002a0 24 cb 7c be f7 8e ea 3e 68 20 93 bd 41 68 1d 3d
       -0.24686867 0.458122 -0.071839154 0.038429502
0002b0 ac 10 ee 3c 49 61 15 bd db 75 19 be 93 e1 98 be
       0.029060684 -0.03646973 -0.14986365 -0.298596
0002c0 89 e4 1b 3f 6b 6f 15 be cc d6 df be 14 9b bb be
       0.6089559 -0.14593284 -0.43718565 -0.36641753
0002d0 fa d1 1a bf 6d cc 99 be b8 56 4f be 05 66 d2 3e
       -0.6047665 -0.30038777 -0.20247924 0.4109346
0002e0 eb f9 72 be ae 8d 8e 3e 4a e9 43 be f6 15 0c bd
       -0.23728149 0.27842468 -0.19131961 -0.03420063
0002f0 4d a6 39 be cf a5 d4 3e 4a 5d fe 3f de 2f 04 40
       -0.18129845 0.41532752 1.987222 2.0654216
000300 e8 af 03 40 65 c0 85 3f e7 9a f5 3e 1a 90 b3 3e
       2.0576115 1.0449339 0.47969744 0.35070878
000310 85 19 56 40 1b da 51 3f 72 e2 e4 3e 52 73 c2 bb
       3.3453076 0.8197343 0.44704014 -0.0059341574
000320 de 3a 7c 3e d1 e5 02 be af c6 a5 3f 34 5b b9 3d
       0.24631831 -0.1278298 1.2951258 0.09050599
000330 50 61 7c 3f e3 75 0e 40 ca b6 1b 3f 31 b3 0d be
       0.9858599 2.2259452 0.6082579 -0.13837887
000340 25 cb 57 3f 33 52 dc 3f b0 dc 49 3c f2 23 61 3d
       0.8429435 1.7212585 0.012320682 0.05496592
000350 a7 4f e0 3e 12 d9 a3 3f b1 8e c8 3e 9a 4d 85 be
       0.4381077 1.280062 0.39171365 -0.26035768
000360 f0 97 b7 3e 03 ec a8 3f ad 6b cb 3d 18 2d 4e be
       0.35858107 1.3197025 0.09932647 -0.2013439
000370 d2 19 c5 3f dc 1d ae 3c a2 42 a3 be aa 10 1e 3d
       1.5398505 0.021254472 -0.31886774 0.03859011
000380 fe 95 6e 40 5f 79 21 3d 89 38 0c be 4a 1b 10 be
       3.7279048 0.03942239 -0.13693441 -0.1407291
000390 39 bf 9d be 53 61 48 3e b6 4e 08 3e e7 c9 07 bf
       -0.30809954 0.19568376 0.13311276 -0.53042454
0003a0 9f 2b 06 3f f6 28 a4 be 2e 14 23 bd 6d 14 14 3f
       0.5241031 -0.320625 -0.039814167 0.5784367
0003b0 8b 75 2b be e9 b0 87 bf 33 11 d6 3c 23 35 88 3d
       -0.16744058 -1.0600864 0.026131248 0.0665076
0003c0 79 64 8e bd 53 de 7d bd 27 88 3e 3c ed 13 40 bb
       -0.069527574 -0.061979603 0.011629141 -0.0029308752
0003d0 f6 be 4c bf cb ef 54 3e 33 a0 c1 bb 88 51 cd 3d
       -0.79978883 0.20794599 -0.00590899 0.100253165
0003e0 36 40 31 be fc dc 49 bf 92 f2 06 3e be ac 33 3e
       -0.17309651 -0.7885282 0.1317847 0.17546365
0003f0 51 8b 5f be 54 cd 09 be f9 3d 25 3e b8 43 e8 be
       -0.21830489 -0.13457233 0.16136922 -0.45364165

network.0.bias f4 [512]
000000 cf 86 5b 38 d6 21 f5 38 1f b5 7c b9 a8 4c 73 37
       5.233922e-05 0.00011688813 -0.00024100066 1.4501777e-05
000010 8d cb b4 3a da 01 81 b7 ee 7d a7 ba 1a 55 31 39
       0.0013793573 -1.537886e-05 -0.0012778619 0.00016911738
000020 ff f1 40 39 f2 87 dc 39 e6 30 dd b9 fd 8d dd 38
       0.00018400697 0.00042062957 -0.00042188837 0.000105645486
000030 c7 6a d1 39 bd 65 05 b8 41 65 d8 b8 37 b0 86 3a
       0.00039943142 -3.1804422e-05 -0.000103185426 0.0010275905
000040 bf e1 94 b7 7a e1 8b ba 65 f9 ae 3a ab e7 95 3a
       -1.7748096e-05 -0.0010672056 0.0013349472 0.001143684
000050 c0 7c ca 3a 25 7a ab 39 a2 8f 6c 39 80 8e 56 3a
       0.0015448555 0.00032706666 0.00022560221 0.00081846863
000060 ee ef 91 ba 86 9c 49 b9 c3 3c 6f b8 03 7d 12 37
       -0.0011134127 -0.00019227163 -5.703863e-05 8.731385e-06
000070 e2 b8 1f 3a fa 73 1b 3a 53 69 06 3a 99 a9 b0 38
       0.00060929183 0.00059300626 0.0005127389 8.423924e-05
000080 31 a5 c5 39 d6 f2 59 b9 ee 59 d0 b9 eb 93 55 39
       0.00037697845 -0.00020785196 -0.00039739854 0.00020368367
000090 8a c0 29 3a b5 78 b4 39 c2 fc 13 b6 1b 48 d3 b9
       0.0006475529 0.0003442221 -2.2051831e-06 -0.0004029878
0000a0 2c 98 86 39 7c a7 4d b7 45 ef 95 38 d1 12 74 ba
       0.0002567185 -1.2257948e-05 7.149441e-05 -0.0009310665
0000b0 67 4a 1e b8 c8 e5 7b ba 25 ef 31 ba aa 0c 73 b9
       -3.7739428e-05 -0.000960913 -0.00067876495 -0.00023179004
0000c0 52 f0 f4 39 db 25 31 b9 e9 12 60 ba 1c 05 70 39
       0.0004671836 -0.00016894138 -0.00085477397 0.00022890087
0000d0 4e 74 80 3a 67 29 02 3a 84 f0 2f ba a8 fa 83 b9
       0.0009800286 0.0004965276 -0.000671156 -0.0002517302
0000e0 2b af 75 3a 95 24 a1 b9 06 50 06 b9 07 03 06 ba
       0.00093721104 -0.0003073557 -0.00012809047 -0.00051121454
0000f0 d2 e3 12 ba 74 d1 cd ba 27 32 80 ba 92 92 c6 39
       -0.0005603406 -0.0015702681 -0.0009780572 0.00037874706
000100 94 eb cc 36 15 dc 34 b9 28 fa aa 38 77 f0 1b bb
       6.1070987e-06 -0.00017248125 8.152827e-05 -0.0023794451
000110 6f 84 8d 38 af d8 75 ba 88 41 5a 39 7c 7e b5 39
       6.7480716e-05 -0.00093782967 0.00020814512 0.00034617248
000120 ab f7 b2 b8 aa dd 14 3a ff ca 9a 39 85 08 04 b9
       -8.533833e-05 0.00056787825 0.00029524413 -0.00012591675
000130 77 86 43 3a 4a ba d4 b9 40 ff 68 b9 20 26 0b 3a
       0.00074586965 -0.00040574587 -0.00022220332 0.000530811
000140 bd b8 dc 39 3a 76 4c b9 eb d5 8c 39 b7 57 8f b9
       0.0004209931 -0.00019498999 0.00026862262 -0.00027340438
000150 48 a4 6d b9 0a 71 18 39 fb 2d a1 38 4c 64 e7 b8
       -0.00022663281 0.0001453796 7.685643e-05 -0.0001103362
000160 cd be 37 39 96 b8 9a b9 08 b9 65 3a 9c b9 e8 b9
       0.00017523319 -0.00029510696 0.00087632285 -0.00044388778
000170 9d 5a 72 3a e7 7c 3a ba 65 d4 ba b9 56 8f 09 b9
       0.000924507 -0.0007113949 -0.0003563493 -0.00013118735
000180 1a c7 7b 3a cd 08 3e 3a 00 5e e8 38 5d 6c a5 39
       0.00096045586 0.0007249236 0.00011080131 0.0003155199
000190 99 47 bc b9 70 02 94 ba 9d fc 88 ba 1c 88 7c 39
       -0.000359115 -0.001129223 -0.0010451261 0.00024083297
0001a0 f7 eb fb 39 11 b5 b6 39 52 0b a1 39 cb 70 8a ba
       0.00048050258 0.0003484865 0.00030716747 -0.0010562179
0001b0 66 87 86 b9 02 6f 60 b9 30 d7 e3 b9 e0 7d 57 b8
       -0.0002565935 -0.00021403658 -0.0004345714 -5.1377225e-05
0001c0 f0 d6 30 3a fa eb ed ba f2 e9 08 39 38 a0 b0 b8
       0.00067458954 -0.0018151992 0.00013057122 -8.422177e-05
0001d0 3f fd 27 ba 33 25 ce b9 6b 29 c4 39 27 25 96 b6
       -0.0006408281 -0.00039319097 0.00037414892 -4.4746735e-06
0001e0 d6 df 7c b9 b0 bc 88 ba d2 11 76 3a da a6 0f ba
       -0.00024115978 -0.001043221 0.00093868107 -0.000547988
0001f0 c2 21 04 ba b1 0f 17 3a b5 19 3d 38 25 27 f4 b9
       -0.00050404307 0.0005762531 4.5085053e-05 -0.00046568472
000200 ab 57 80 b8 ac 52 98 39 5e 80 d7 b9 99 f5 a8 39
       -6.119845e-05 0.00029053295 -0.00041103637 0.00032226442
000210 cb 8e 5d ba 39 e5 ad 39 5e 7f a9 39 18 02 0b 3a
       -0.0008451759 0.00033167916 0.00032329088 0.0005302741
000220 bd f1 81 b9 e8 38 99 b9 4b 8d 7f ba f8 6a c8 ba
       -0.00024784906 -0.00029224833 -0.00097485323 -0.0015290668
000230 85 9c 53 b9 4a 9f 77 38 57 b5 64 ba 1b 7e 02 3a
       -0.00020180836 5.903774e-05 -0.00087245315 0.00049778976
000240 46 6b 64 3a a8 e4 98 39 f2 45 33 b9 1b 21 cf 39
       0.0008713495 0.0002916206 -0.00017096827 0.00039506782
000250 43 09 1f 39 ec ec 11 b9 d0 49 29 b9 63 31 7e 39
       0.00015166872 -0.00013916538 -0.00016144593 0.00024241726
000260 11 67 85 b8 5c 97 8c 3a 29 d6 04 ba 39 4d f8 b8
       -6.361132e-05 0.0010726261 -0.0005067313 -0.000118399454
000270 ee 9c 65 ba 7c 38 da 39 34 38 ad 39 2f 8f bf b8
       -0.0008759041 0.00041622284 0.00033039006 -9.13426e-05
000280 a4 88 98 39 fe 1b 20 39 eb bf 08 3a ae ed 0c ba
       0.00029093504 0.00015269217 0.0005216586 -0.0005375993
000290 28 d8 de 38 ca f7 ff b8 9e 9c 48 ba 14 08 c3 b9
       0.00010626047 -0.00012205502 -0.00076527323 -0.00037199317
0002a0 c8 72 b0 39 9e c0 f3 b9 72 a9 3c 38 7c 07 f8 39
       0.00033654855 -0.00046492083 4.49805e-05 0.00047307822
0002b0 c6 4a 4e ba d8 25 b5 38 86 a8 e2 b9 11 d8 ed b9
       -0.00078694185 8.6378015e-05 -0.0004323164 -0.00045365145
0002c0 3f 18 0d ba 28 0a 0e 3a 5e 55 7b 3a 08 16 02 b8
       -0.0005382336 0.00054183835 0.0009587611 -3.1014933e-05
0002d0 14 9f 36 b9 f1 e3 8d 38 99 1d f9 b7 05 bf dc ba
       -0.00017416134 6.765861e-05 -2.9696896e-05 -0.0016841596
0002e0 68 9a 93 b9 3b 59 3d 37 d5 cb f0 b8 be 7e a0 38
       -0.00028153067 1.1286053e-05 -0.000114820585 7.653002e-05
0002f0 0b 7e 36 ba 87 0a bc ba 60 c6 e4 b9 4d ab f5 b8
       -0.0006961531 -0.0014346399 -0.0004363535 -0.000117144176
000300 5b 24 eb 39 a9 d4 39 ba d1 89 10 38 d8 ed 9a 39
       0.0004484978 -0.0007088879 3.4460627e-05 0.00029550376
000310 6e 63 04 ba 5f be 98 ba 09 fb 15 ba 2d 67 d1 39
       -0.00050502166 -0.0011653415 -0.0005721306 0.00039940458
000320 0e 9e 25 39 ae f0 ba b9 d0 f8 af b8 b4 7a cc b8
       0.00015794506 -0.00035656005 -8.390995e-05 -9.750333e-05
000330 67 08 02 b8 69 7f 1d ba 5e df 83 b8 26 11 6e b9
       -3.100224e-05 -0.00060080603 -6.288172e-05 -0.00022703837
000340 96 5c 80 ba 59 cd 47 39 c5 0c e4 39 f7 fa 28 3a
       -0.0009793218 0.00019054617 0.00043497063 0.0006446088
000350 93 52 19 3a 66 c6 6f b9 f6 b8 82 3a bd 79 1f b9
       0.00058487913 -0.00022866725 0.0009973336 -0.00015208773
000360 b4 b6 ac 39 16 67 95 38 25 0e c8 b9 6b 10 9d b9
       0.0003294252 7.124075e-05 -0.0003815751 -0.00029957606
000370 e6 f7 29 36 67 55 bf 39 22 6b 75 39 a0 96 1c 39
       2.5327258e-06 0.0003649399 0.00023404931 0.00014933432
000380 eb 5f 88 ba 2f da af 39 f9 89 ad 39 6c 2e 10 ba
       -0.0010404562 0.0003354116 0.0003309993 -0.00055000815
000390 36 af 6f 39 d3 5c b2 39 47 ab 7c 3a 02 62 10 b9
       0.00022858087 0.00034019965 0.00096385594 -0.00013769421
0003a0 ca 8d 79 b8 c0 8c 4f 38 1e 89 8e b7 08 00 55 ba
       -5.9498278e-05 4.948373e-05 -1.699157e-05 -0.000812531
0003b0 c9 45 a0 b9 ad c2 5c b9 65 ff eb 39 33 f3 ec 39
       -0.00030569572 -0.00021053357 0.00045012977 0.00045194625
0003c0 8d 32 8f 39 0a 3b 66 3a 6c 2e 8f b6 10 59 27 3a
       0.0002731275 0.0008782601 -4.2671363e-06 0.0006383816
0003d0 ea 3b fa b9 ae f0 d8 39 13 d6 d4 b9 2c 2e 2f b9
       -0.00047728355 0.0004137805 -0.0004059529 -0.00016706501
0003e0 95 74 27 ba c6 cb a3 b9 78 09 43 b9 6e 64 41 3a
       -0.00063879165 -0.00031241606 -0.00018600177 0.0007377331
0003f0 62 03 14 ba f1 60 bf 3a 73 14 3e ba 3f c7 0a ba
       -0.0005646256 0.0014601034 -0.0007250972 -0.0005293972

network.1.weight f4 [512]
000000 bb cf 54 3f 61 6e 64 3f 58 fc 67 3f ee 22 29 3f
       0.8312947 0.89230925 0.9061942 0.66068923
000010 8b 16 58 3f bc a2 1d 3f f9 9c 5e 3f 92 b4 43 3f
       0.844094 0.6157644 0.8695827 0.76447403
000020 6b ca 91 3f 17 19 61 3f a8 bf aa 3f f4 c2 04 3f
       1.1389898 0.8792891 1.3339739 0.51859975
000030 a2 b9 39 3f b0 87 dc 3e 43 bb 33 3f 85 0f ff 3e
       0.7254888 0.4307227 0.70207614 0.49816528
000040 ed b4 2f 3f bf 6c 0d 3f 0e c3 47 3f 0e b5 e7 3e
       0.68635446 0.5524406 0.78032005 0.4525532
000050 48 f6 62 3f 23 2c 63 3f a9 c0 1f 3f 0b 94 fa 3e
       0.88657045 0.8873922 0.6240335 0.48941073
000060 20 dc 1c 3f 25 15 27 3f 9f c3 97 3f 0e ad 29 3f
       0.61273384 0.6526664 1.1856574 0.66279685
000070 e4 63 27 3f a7 10 88 3f 78 db af 3e 4b a3 84 3f
       0.65386796 1.0630082 0.3434713 1.0362333
000080 38 05 83 3f 8d 08 40 3f 9b ce 4f 3f 48 12 55 3f
       1.0235968 0.7501305 0.8117463 0.8323102
000090 3c 8f 56 3f cf fc 2d 3f e2 e8 83 3f ca b0 25 3f
       0.8381231 0.6796388 1.0305445 0.64722884
0000a0 b3 02 38 3f 46 93 f5 3e 8f 79 45 3f a8 03 48 3f
       0.7187912 0.47963923 0.7713861 0.7813058
0000b0 9c 55 14 3f 72 86 0d 3f 97 ad 5b 3f 39 3e 0f 3f
       0.5794313 0.5528327 0.8581175 0.5595432
0000c0 43 57 89 3f ed 3c 86 3f 6a f0 ac 3f 32 32 55 3f
       1.0729755 1.0487343 1.3510869 0.83279717
0000d0 b2 a5 70 3f 9f 0f fa 3e cd b3 85 3f 23 ce 04 3f
       0.9400283 0.48840043 1.0445496 0.5187704
0000e0 3f 7c f8 3e 49 2c 3a 3f 1d 4f ed 3e af 84 ef 3e
       0.48532292 0.72723824 0.4634942 0.46780917
0000f0 b9 95 87 3f ab f3 57 3f 3d fd 73 3f dd 64 6e 3f
       1.0592567 0.8435618 0.95308286 0.93122655
000100 01 dc 74 3f 1a 6f 2e 3f 39 7a 77 3f e6 0a ac 3f
       0.956482 0.6813828 0.9667087 1.3440826
000110 0f 9b 32 3f 56 b1 12 3f 15 c9 26 3f fe a0 ff 3e
       0.6976785 0.57301843 0.65150577 0.49927515
000120 54 53 29 3f d1 35 83 3f 20 7a 4c 3f 99 b7 83 3f
       0.66142774 1.0250798 0.7987385 1.0290405
000130 66 d3 6d 3f b5 9e f3 3e 12 5c 34 3f 66 78 64 3f
       0.92900693 0.4758202 0.7045299 0.89246213
000140 54 6b 71 3f b4 6d a6 3f b7 6b 19 3f 72 82 56 3f
       0.94304395 1.3002229 0.59929985 0.83792794
000150 11 07 18 3f df fb 15 3f 26 7e 11 3f 8f db 15 3f
       0.5938578 0.5858745 0.5683311 0.58538145
000160 f7 b2 de 3e 3c b1 78 3f 22 ad 34 3f c1 aa f8 3e
       0.43495914 0.9714544 0.7057668 0.48567775
000170 80 f1 48 3f 8e ee 84 3f 8b 95 20 3f fa 76 fa 3e
       0.784935 1.0385301 0.62728184 0.48918897
000180 39 77 9b 3f 72 c1 0e 3f 86 da fa 3e 4d 6b 5f 3f
       1.2145759 0.55763924 0.48994845 0.87273103
000190 f1 aa 32 3f 43 46 06 3f c2 e9 3f 3f f4 10 15 3f
       0.69792086 0.5245096 0.7496606 0.58228993
0001a0 a2 08 44 3f ab da 51 3f 27 94 a3 3f f7 47 3b 3f
       0.7657567 0.81974286 1.2779588 0.73156685
0001b0 25 66 08 3f 6a 67 38 3f 0b eb 9f 3f 3d 5f 25 3f
       0.5328086 0.720328 1.2493604 0.6459845
0001c0 1a 0b 4b 3f 28 fd 59 3f d5 ba 8a 3f 5d 03 ba 3e
       0.79313815 0.8515191 1.0838267 0.3633069
0001d0 2b c5 74 3f 44 97 6a 3f 43 e2 58 3f 0c 77 16 3f
       0.95613354 0.91637063 0.8472025 0.587754
0001e0 c2 21 39 3f 96 25 14 3f 66 8e 91 3f 38 99 6f 3f
       0.72317135 0.5786985 1.1371582 0.9359317
0001f0 2a c4 55 3f 88 f5 56 3f 65 d4 31 3f be b8 1b 3f
       0.8350245 0.839684 0.69464713 0.6082877
000200 49 e6 05 3f 5f 46 81 3f b6 eb 1b 3f cc 9e 5d 3f
       0.5230451 1.00996 0.6090654 0.8657043
000210 b6 fe 7c 3f 6c dc 40 3f d9 aa 0c 3f 3c 7a 30 3f
       0.9882616 0.7533634 0.5494819 0.68936515
000220 be 9b ff 3e a6 23 13 3f b7 d1 16 3f 70 a9 1b 3f
       0.4992351 0.5747627 0.5891375 0.60805416
000230 33 36 17 3f c4 1b 53 3f 6e 29 0b 3f d2 4c 55 3f
       0.59067076 0.8246424 0.5436009 0.83320343
000240 84 ba 8e 3f db 87 05 3f db a3 0a 3f d4 d7 9b 3f
       1.115067 0.52160424 0.54156274 1.217524
000250 9b c8 48 3f 1e 63 6e 3f 05 a6 65 3f bc 2e 30 3f
       0.784311 0.9311999 0.8970645 0.6882131
000260 4f f1 04 3f e1 d5 4d 3f 87 4d ee 3e 25 c7 33 3f
       0.5193071 0.8040448 0.46543524 0.70225745
000270 9e 45 58 3f 53 08 17 3f a5 60 73 3f d9 e8 34 3f
       0.8448123 0.58997077 0.9506934 0.706678
000280 43 b4 85 3f bd 99 43 3f ce 36 c8 3e ca 87 3c 3f
       1.0445637 0.7640646 0.39104313 0.736447
000290 ef e6 69 3f c2 91 97 3f aa ec fb 3e a6 e9 99 3f
       0.91368 1.1841357 0.49203998 1.2024429
0002a0 eb 7a 5b 3f 77 22 24 3f fa bc 5a 3f 44 76 82 3f
       0.8573443 0.6411509 0.85444605 1.0192342
0002b0 c3 57 6b 3f b8 53 79 3f 5c b6 64 3f 10 b4 65 3f
       0.9193079 0.9739337 0.8934076 0.8972788
0002c0 df 3d 6e 3f b9 eb 30 3f c4 60 87 3f ac 51 06 3f
       0.9306316 0.69109684 1.0576406 0.5246837
0002d0 62 d7 da 3e b4 6e 2c 3f c2 8a ea 3e 57 6b 9d 3f
       0.4274245 0.6735642 0.4580899 1.2298383
0002e0 30 e6 6d 3f 5a 98 f4 3e 0d 78 ce 3e a0 64 2a 3f
       0.92929363 0.47772485 0.40325966 0.6655979
0002f0 65 f8 25 3f 6c 2a a4 3f 7c d4 71 3f 11 a7 67 3f
       0.64832145 1.2825446 0.9446485 0.904893
000300 f2 09 03 3f 3c 20 55 3f 85 b2 8e 3f d5 8c 24 3f
       0.5118705 0.8325231 1.114823 0.6427739
000310 b9 a3 4e 3f 34 9e 79 3f ca 1d 86 3f 96 fa 0b 3f
       0.8071857 0.97507024 1.0477841 0.5467924
000320 17 4e 4b 3f 9f a3 ee 3e dd c3 1e 3f 9b 41 fe 3e
       0.7941603 0.46609208 0.62017614 0.49659428
000330 0c 3d 48 3f c3 5d 4b 3f 50 63 2f 3f 1d 48 3a 3f
       0.7821815 0.79439944 0.68510914 0.72766286
000340 01 38 7b 3f 8e db 45 3f de 6a 05 3f ac 6b 0c 3f
       0.9813233 0.7728814 0.5211619 0.54851794
000350 e2 42 67 3f f3 f8 02 3f 56 2a 55 3f b8 49 fb 3e
       0.9033643 0.51161116 0.83267725 0.4907968
000360 ea f4 20 3f df a2 37 3f 88 08 42 3f 98 b1 74 3f
       0.6287371 0.71732897 0.7579427 0.95583487
000370 1c 3f 4c 3f 12 bc 87 3f 96 4b 18 3f 13 e0 0f 3f
       0.797838 1.060427 0.59490335 0.56201285
000380 79 70 48 3f c6 cc 45 3f dc b4 88 3f ea 83 33 3f
       0.7829662 0.77265584 1.0680194 0.7012316
000390 25 59 4c 3f 2c f3 83 3f 24 c4 17 3f 93 8e 6f 3f
       0.79823524 1.0308585 0.5928366 0.93576926
0003a0 be ba 69 3f 89 92 f5 3e 2a d7 c4 3e 80 76 86 3f
       0.9130057 0.4796336 0.38445407 1.0504913
0003b0 f8 d8 65 3f 6f f3 7c 3f e7 a3 7c 3f 19 ae 86 3f
       0.89784193 0.9880895 0.98687595 1.052188
0003c0 34 c3 4a 3f 89 d2 1f 3f c2 5c 14 3f 31 dc 3d 3f
       0.79204106 0.62430626 0.5795404 0.7416411
0003d0 69 0c 53 3f d4 fd e6 3e 35 70 91 3f b2 a2 0c 3f
       0.8244081 0.4511553 1.1362368 0.54935753
0003e0 26 14 23 3f 01 dc 51 3f 9f 81 6e 3f 74 14 75 3f
       0.6370262 0.81976324 0.93166536 0.95734334
0003f0 d8 83 9c 3f de dc 2c 3f cf 39 48 3f 70 5a 76 3f
       1.2227736 0.67524517 0.7821321 0.96231747

network.1.bias f4 [512]
000000 43 47 3f bf fe ce c4 bf d9 1b 84 bf c7 30 43 be
       -0.7471811 -1.5375669 -1.0320998 -0.19061576
000010 ef 01 fb bd 13 ef 3a bf 98 50 cc be 39 d5 c4 be
       -0.12256228 -0.7302105 -0.39905238 -0.38443926
000020 9f ef a7 bf 28 4b 1a bf 2d 5e 84 bf 5d 2e 09 bf
       -1.3120002 -0.6027093 -1.034124 -0.5358637
000030 41 d3 7c be 61 f6 40 bd d0 6c a1 be 69 d8 84 bd
       -0.24689962 -0.047109965 -0.3152833 -0.064865895
000040 87 84 d3 be f2 29 e2 bd 6c 96 8a be 79 c3 5b 3b
       -0.41312048 -0.11043157 -0.27067888 0.0033533259
000050 5d 57 c0 be b5 cd fa be b0 c6 3a bf 87 dd 97 be
       -0.37566653 -0.48985067 -0.72959423 -0.296612
000060 18 bf b4 bc c4 c3 ae be 6a 8d b5 bf 3c d2 13 3e
       -0.022063777 -0.34133732 -1.4183781 0.14435667
000070 c6 6c a0 be 43 9f f1 bf c5 31 b5 3c 49 ae b9 bf
       -0.31332988 -1.8876728 0.022118459 -1.4506313
000080 7b 36 16 bf a1 7d c1 be 98 eb f8 bf 97 e2 8e bf
       -0.5867688 -0.3779116 -1.9446898 -1.11629
000090 d0 fb 16 bf 22 00 5b bf 64 12 37 bf a8 2a dd be
       -0.58977985 -0.8554708 -0.71512437 -0.43196607
0000a0 a8 5d a6 be f0 47 a2 ba e8 0d 0a bf 8c 74 a6 be
       -0.3249333 -0.0012381058 -0.5392747 -0.32510793
0000b0 84 2b 28 3d 5e 31 e8 bd f8 1f 13 c0 38 54 51 3e
       0.041057125 -0.11337541 -2.2988262 0.20442283
0000c0 76 d4 c3 bf be fa b1 bf fb c6 8f bf 1d 6d 5f bf
       -1.5299213 -1.3904645 -1.1232599 -0.8727587
0000d0 c8 86 0f bf 7b 60 0e bd a7 18 d3 bf eb a5 f0 3c
       -0.56065035 -0.03475998 -1.6491898 0.02937599
0000e0 bd e0 30 3d 58 d4 08 bf 9a 2e 79 be 22 41 68 bd
       0.043183077 -0.5344901 -0.24334183 -0.05670274
0000f0 3c 2e e6 bf 21 c3 4d bf cb 38 2f bf 86 fd 84 bf
       -1.798286 -0.8037587 -0.68446034 -1.0389869
000100 76 aa d8 bf 72 3b 36 bf b0 1c 01 bf 95 8e 96 bf
       -1.692702 -0.71184456 -0.504344 -1.1762263
000110 f1 fa e6 bf 04 1b 9c 3d d0 05 75 bf b8 8b 79 bb
       -1.8045331 0.0762234 -0.95711994 -0.0038077664
000120 d9 f8 00 bf 67 25 a7 be 68 1c aa bf 10 1e cd bf
       -0.5037971 -0.32645723 -1.3289919 -1.6024799
000130 c8 05 00 bf 6d 8d aa bc 4b 6f 23 bf 1d 3b d3 bf
       -0.5000882 -0.02081939 -0.63841695 -1.6502415
000140 fa 98 ec be ad 0e ab bf 5a 62 42 be 34 21 03 c0
       -0.46210462 -1.3363854 -0.1898283 -2.0489016
000150 92 d3 b2 be dc e4 28 bd be db e7 be c2 ed 20 bf
       -0.3492704 -0.041233882 -0.45284837 -0.6286279
000160 3a dd a9 3d 96 07 85 bf b1 f9 39 bd 2a 8d 6b bb
       0.08294149 -1.039294 -0.04540414 -0.0035942295
000170 1a 2f 83 be c2 7c e5 be 23 29 f1 3b c6 94 aa be
       -0.25621873 -0.44821745 0.00735964 -0.3331663
000180 76 5a d7 bf 35 58 cd bd f1 29 6b bd c3 16 b2 bf
       -1.6824481 -0.1002659 -0.057413045 -1.3913196
000190 21 9d fb be 7b ca 77 be 59 06 00 bf b0 b2 bd bd
       -0.49143317 -0.24198334 -0.50009686 -0.092625976
0001a0 0f 33 82 bf 29 a0 0c bf 6c 84 90 bf 86 72 5f bd
       -1.0171832 -0.54931885 -1.1290412 -0.054552577
0001b0 69 df 1e bc de f3 1a bf 13 0f a2 bf 60 4e 0e be
       -0.00969682 -0.6052836 -1.266085 -0.13897085
0001c0 15 7e 8e bf 93 22 de bf 66 9d e3 bf 38 5b 85 bd
       -1.1132227 -1.7354301 -1.7782409 -0.06511539
0001d0 fb e0 c2 bf c9 fb 33 3e 0d 25 3c bf c2 46 c7 be
       -1.5224909 0.17576517 -0.73494035 -0.3892117
0001e0 79 df a1 bf 96 77 4f 3e b1 8e d8 bf 21 81 03 bf
       -1.2646323 0.20260462 -1.6918546 -0.5136891
0001f0 db 4a 68 bf 65 2e b6 be 86 58 93 bf bb e1 02 be
       -0.9073922 -0.3558227 -1.151139 -0.12781422
000200 fd e8 1d 3d 37 61 bf bf aa 3f 1d be 7c 2c 43 bf
       0.038552273 -1.4951543 -0.15356317 -0.7623975
000210 b3 58 4f bf bf 75 74 bf af 4f ca bd 6e 7a a7 be
       -0.8099472 -0.95492166 -0.0987848 -0.32710594
000220 fc 5e 47 be cd fc 35 3d 00 9d 54 bd 7a 34 af bd
       -0.19469827 0.044430543 -0.05190754 -0.08554931
000230 22 8d 31 bb ef ec 0d bf 0d dd 08 be 25 59 6e bf
       -0.0027092178 -0.55439657 -0.13365574 -0.93104774
000240 f1 15 c5 bf 46 eb 79 bc 66 1c e8 bd 77 b3 93 bf
       -1.5397321 -0.015253847 -0.113335416 -1.1539143
000250 e0 ab ad bf 87 e9 9d be 35 75 cc be 82 19 51 be
       -1.3568077 -0.3084223 -0.39933172 -0.20419887
000260 dc fd e1 bd ff f4 be be 39 f3 c2 bc ac e8 67 bf
       -0.11034748 -0.37296292 -0.023797618 -0.90589404
000270 4a 47 9c bf fc 38 ab 3c b4 72 8b bf 37 3a 4d bf
       -1.2209256 0.020901196 -1.089438 -0.80166954
000280 2d e4 ba bf 0b f9 2d c0 76 38 5c bc 77 de 91 be
       -1.4600884 -2.7183254 -0.013441196 -0.2849004
000290 dc 27 58 bf e8 56 93 bf 5f 56 e5 bd 85 0d 55 bf
       -0.8443582 -1.1510897 -0.111981146 -0.83223754
0002a0 4a ed 0c bf 95 f9 ef bd 2d 30 87 be 45 9d ca bf
       -0.55049574 -0.11717526 -0.26403943 -1.5829245
0002b0 a5 48 d3 be 55 aa 09 bf 2f 82 27 bf 3f 04 f7 bf
       -0.4126636 -0.5377553 -0.6543302 -1.9298171
0002c0 a3 22 d0 be 34 af f2 be 4f 99 7c bf a1 23 01 3e
       -0.40651426 -0.47399294 -0.9867143 0.12611248
0002d0 83 a2 9a bd 12 98 91 be ad 01 4a 3d fb 49 91 bf
       -0.07550528 -0.28436333 0.049318004 -1.1350702
0002e0 1d 4f cb be 2d 39 37 3e a9 24 58 3d 31 f6 e9 be
       -0.39708796 0.17892905 0.052769337 -0.45695642
0002f0 10 c2 f2 be 0a fd a7 bf c0 f9 49 be dc e6 09 bf
       -0.47413683 -1.3124096 -0.19724178 -0.5386789
000300 02 23 f3 3c 23 21 c2 bf 55 8a 99 bf 1e 04 ab bd
       0.029679779 -1.5166363 -1.199534 -0.08350395
000310 ca 2e 87 bf e9 5a 96 bf f8 7e 31 bf 1e 79 9d bc
       -1.0561154 -1.1746494 -0.69334364 -0.019222792
000320 9e 25 fa be dd 15 b7 3d 40 92 00 be 22 fd e1 be
       -0.48856825 0.08939717 -0.1255579 -0.44138438
000330 fb 4a 30 bf 6c c0 06 bf b7 d3 6d bf 57 8c 8d be
       -0.6886441 -0.5263736 -0.92901176 -0.27646133
000340 85 99 4b bf 48 9e af bf 43 4d 81 bc 82 6e ed 3d
       -0.7953113 -1.3720179 -0.015783912 0.11593343
000350 09 30 a5 bf 13 c6 31 bd d4 f2 a0 bf 3d 0b fc bd
       -1.2905284 -0.04340179 -1.2574105 -0.12306831
000360 ab 31 34 be 7b 5f 3d bf d7 0c 89 bf 9e 30 42 bf
       -0.17597072 -0.73973817 -1.0707043 -0.75855434
000370 01 50 60 bf d8 fc 98 bf 13 55 a7 bd 4d 92 bb be
       -0.87622076 -1.1952162 -0.081705235 -0.36635056
000380 e2 11 1b bf fc e5 33 bf 96 e2 86 bf 0f 44 41 bd
       -0.6057416 -0.70272803 -1.0537899 -0.047184046
000390 42 4c 36 bf 39 3d 65 bf 9f 05 62 bc 6f 7b a7 bf
       -0.7121011 -0.89546543 -0.0137952855 -1.3084544
0003a0 b7 c9 83 bf 3c 73 fd 3b eb 58 61 be 06 01 65 bf
       -1.0295933 0.0077346843 -0.22006576 -0.89454687
0003b0 91 62 52 bf 62 7b 6a bf 21 9d d0 be 1e 9e d1 bf
       -0.8218165 -0.9159452 -0.4074488 -1.6376379
0003c0 05 61 f7 be 05 15 2e be 7d 0e eb be 10 90 b5 be
       -0.48316208 -0.17000206 -0.4590949 -0.35461473
0003d0 32 07 28 bf 48 b2 9a 3d e5 3c 6d bf e3 f3 66 be
       -0.6563598 0.07553536 -0.9267104 -0.22553973
0003e0 ac 41 a7 be 53 99 7f bf a7 f0 97 bf 5e 7c ca be
       -0.3266729 -0.9984333 -1.1870316 -0.3954801
0003f0 7d a4 af bf 19 ab b2 be 43 6b ee bf a9 dd 42 bf
       -1.3722073 -0.34896162 -1.8626484 -0.76119477

network.1.running_mean f4 [512]
000000 eb fa 74 3d fd 49 5a 3f 34 13 70 be fb 5e 05 3f
       0.059809607 0.8526915 -0.23444825 0.52098054
000010 55 23 b5 be fe 5c 1f 3f 2e e2 2c bf b0 df 18 bf
       -0.3537852 0.6225127 -0.6753262 -0.5971632
000020 c7 3a 3f be 10 76 c3 3e bd a2 86 be 5c b1 6e be
       -0.18674766 0.38176012 -0.26296034 -0.23309845
000030 8f b1 54 bf 35 e0 1b bf 45 e8 1f bf c7 d4 4b bf
       -0.8308343 -0.6088899 -0.6246379 -0.7962155
000040 88 b9 33 3d 66 a5 01 3f 93 f2 03 3f 1d 84 0b bf
       0.04387811 0.50643003 0.51542014 -0.54498464
000050 d9 b3 36 bf bd 94 60 be a3 60 5e 3f eb 01 ba 3e
       -0.71368176 -0.21931739 0.86866206 0.36329588
000060 5a 12 f7 3e 49 e4 20 3e 66 9d fd bd 42 6f 1d 3f
       0.4825619 0.15712084 -0.12383537 0.6149789
000070 da be 04 3f d2 8e 0b be d5 12 2e be e0 ca 17 bf
       0.51853716 -0.136287 -0.16999371 -0.5929394
000080 8f f8 d3 be 5c 7f fb be cb 68 68 3f 4a 04 1b bf
       -0.41400573 -0.49120605 0.907849 -0.6055342
000090 22 40 01 bf f3 f6 e9 3e 95 4c ba be 9a 6a 74 3f
       -0.50488484 0.4569622 -0.36386552 0.9547516
0000a0 54 db 1d bf c3 c4 be bd fd 58 0b 3f 61 7b 28 bf
       -0.61662793 -0.09314873 0.5443266 -0.6581326
0000b0 98 21 47 3f 36 70 01 3f 84 5d 04 3f 02 c4 14 3f
       0.77785635 0.50561845 0.51705194 0.58111584
0000c0 93 1e 99 be ed 44 10 bf e1 1f 26 be b9 48 0b bf
       -0.2990614 -0.5635517 -0.16223098 -0.5440784
0000d0 5c 55 0b bf 16 3e e5 3e 47 c2 0c be 63 f1 3e bf
       -0.54427123 0.4477393 -0.13745986 -0.74587077
0000e0 58 9e 14 bf d7 d1 0e 3f fe 26 b7 3c 93 37 f9 3e
       -0.58054113 0.5578894 0.02235746 0.48675212
0000f0 8a 61 32 bf 1f 8a 15 3f 6b f2 da be e9 a0 e1 3e
       -0.6968008 0.5841388 -0.42763075 0.44068077
000100 61 00 19 bf f1 49 d7 3e 84 b0 28 bf 50 2c b0 be
       -0.59766203 0.420486 -0.6589434 -0.34408808
000110 4f bb 1f 3f c9 0a 23 bf ae 45 15 3f b5 3d 30 bf
       0.62395185 -0.6368833 0.5830945 -0.6884416
000120 29 a6 5e 3f 03 6a fe 3e b2 48 6b 3f 18 fe 25 bf
       0.8697229 0.49690256 0.919078 -0.6484084
000130 a5 81 ee be 00 96 ee 3e d0 0a 5f bc 77 f8 1f 3e
       -0.46583286 0.46598816 -0.013613418 0.15622126
000140 ce 8f 55 bf dd f2 66 be 78 56 35 bf 45 fc 26 3f
       -0.83422554 -0.22553582 -0.70835066 0.6522868
000150 af 6e 27 bf 6b b7 0b 3f 85 fa 45 3e ce 22 f5 3e
       -0.65403265 0.5457675 0.19333847 0.47878116
000160 1a 46 2c bf ff a7 d3 be c1 7a 05 bf d3 ca 22 bf
       -0.67294466 -0.41339108 -0.5214043 -0.63590735
000170 c1 9b fd be db e1 56 3e 87 44 0d 3f 57 c2 1f 3f
       -0.49532893 0.20984595 0.5518269 0.62405914
000180 05 d7 52 be fd eb f6 3e 38 29 cb 3e 42 73 e4 3e
       -0.20589836 0.4822692 0.39679885 0.44619185
000190 25 c0 0d 3f 6f df 13 be 90 d6 ed 3e fb 45 fd 3e
       0.55371314 -0.14440702 0.4645276 0.49467453
0001a0 5c c4 02 3f 56 49 a2 3e c5 1d 65 be c3 b4 02 bf
       0.5108087 0.31696576 -0.22374637 -0.5105707
0001b0 45 50 0f 3f cf e5 96 3e 5d fc 8b be 20 ba 80 be
       0.55981857 0.29472205 -0.27340975 -0.25142002
0001c0 53 44 f0 3e 59 54 a6 3e eb e0 2a bf 8d ef 09 bf
       0.46927127 0.32486227 -0.6674945 -0.5388115
0001d0 f1 b0 35 be 5a 43 73 3e d4 f1 ee 3e c7 fc b5 be
       -0.17743279 0.23756161 0.46668875 -0.35544416
0001e0 5d da ca be 1a 8a 89 3e 38 f6 54 be fe bd 31 bf
       -0.39619723 0.26863176 -0.2079705 -0.6943053
0001f0 18 9f 5a 3e bc 6a 34 bf 6e e7 38 bf 12 a0 00 3f
       0.21349752 -0.70475364 -0.72228134 0.5024425
000200 8a 8f da 3e a1 19 ff be cd cb 12 3f d4 a7 24 be
       0.42687637 -0.4982424 0.57342225 -0.16079646
000210 9a 9b f4 3e a9 37 ec 3e 5f 4c 03 3f 6d b3 bb be
       0.47774965 0.46136215 0.5128841 -0.36660329
000220 22 40 7c 3e db 89 0c bf 42 4d 23 3f ec 18 f4 3e
       0.2463384 -0.5489785 0.6378976 0.47675264
000230 54 db 1c bf ae 1b 02 3f 1a 6c c7 3e 6f a0 0b 3f
       -0.6127217 0.50823486 0.38949662 0.5454168
000240 3f 5f e1 be cf bb 16 bf 23 78 d0 3e e0 a8 5b be
       -0.4401798 -0.58880323 0.40716657 -0.2145114
000250 ac 0b 91 3f 2b 3f b5 be 62 45 1b bf 4e 7c 12 bf
       1.1331687 -0.35399756 -0.60652745 -0.57220924
000260 3d ec 24 3f 00 24 22 bf 27 37 2c bf d2 b5 55 3e
       0.6442297 -0.6333618 -0.67271656 0.2087014
000270 1c 00 e7 bd 9f c2 2b bf 24 07 2f be b4 b8 01 bf
       -0.11279318 -0.67093843 -0.17092568 -0.5067246
000280 5e a6 17 bf 4e 1f e7 3e 03 ba bc 3d 59 0d 11 3f
       -0.5923823 0.4514107 0.092151664 0.5666099
000290 20 5e 4e be 9c a2 a4 be c7 64 15 3f 55 7b 92 be
       -0.20153093 -0.3215531 0.583569 -0.2860972
0002a0 74 07 fa 3e 35 e8 39 bf e6 40 51 bf 2a a5 e4 be
       0.4883381 -0.72619945 -0.8173965 -0.4465726
0002b0 a9 44 27 bf 65 f7 b5 3e 31 fd 00 bf d1 b4 b2 3e
       -0.6533914 0.3554031 -0.5038634 0.34903577
0002c0 84 64 36 bf 8c 05 0b 3f f6 a9 45 be c5 7f 24 3f
       -0.71247125 0.5430534 -0.19303116 0.6425746
0002d0 f9 98 2b 3f 58 1a 93 3e 77 d3 02 bf d3 a4 7d be
       0.6703029 0.28731036 -0.5110392 -0.24769907
0002e0 f3 df 41 bf 84 80 f1 3e 3a 48 2c bf 87 4b 15 3f
       -0.75732344 0.47168362 -0.6729771 0.5831837
0002f0 ed 23 e2 3e 94 fc 23 be 20 db d0 be 0d f0 0e bf
       0.44168034 -0.1601432 -0.4079218 -0.5583504
000300 fa 6d 15 bf 1c f9 a2 3e 2f 61 84 be a7 49 14 3f
       -0.58370936 0.3183068 -0.25855395 0.57924885
000310 e9 3e b3 be 17 06 2d 3e b5 5c 1e bf 9c 8a e1 3e
       -0.35008934 0.16896854 -0.6186021 0.44051063
000320 f6 88 07 bf aa 01 19 bf 4e 15 5c be da a5 c2 3e
       -0.5294336 -0.59768164 -0.21492502 0.3801716
000330 fa 1a fd 3e ec 5d aa 3e 74 72 a3 be 3f 14 b0 3c
       0.49434644 0.33274782 -0.31923258 0.02149403
000340 12 32 f1 bd fe 0f a2 3e ce a6 09 3f dc b9 43 3f
       -0.11777128 0.31652826 0.5377015 0.76455474
000350 27 b3 43 3f d8 56 f9 3e eb c3 5f 3f a6 26 d5 be
       0.7644524 0.4869907 0.8740832 -0.4163105
000360 57 ae 09 3f e7 4d 15 3f 35 a2 d1 3e b1 7c e0 be
       0.53781646 0.58321995 0.40944067 -0.43845132
000370 ab e7 df 3d 94 f3 0a bf 4b dc 93 be a1 00 95 3b
       0.10932859 -0.5427792 -0.28879008 0.004547194
000380 6d 75 e9 3e 16 30 79 3e 1f b0 2f be 79 27 dc be
       0.455974 0.2433475 -0.17157029 -0.42998865
000390 5a 33 af bd 13 50 bf be 2e b0 08 3f 0d 51 fc bd
       -0.085547164 -0.3736578 0.5339383 -0.12320147
0003a0 fb 41 cb 3c a0 d8 15 3f 4b 3a d6 3e 01 ab d9 bd
       0.024811735 0.5853367 0.4184135 -0.106283195
0003b0 7d 64 93 be a0 12 38 be 43 14 3b bf f3 4f 1d bf
       -0.28787604 -0.17975855 -0.7307779 -0.6145012
0003c0 15 64 62 be 94 80 04 3f 58 ea e4 3d 63 47 41 3e
       -0.22108491 0.51758695 0.1117751 0.18874888
0003d0 3e 5a 1f 3f a8 d5 3a bf b4 e8 8a be ba 72 13 3f
       0.62247074 -0.72982264 -0.27130663 0.57596934
0003e0 52 10 07 3f 0e e4 d3 3e 60 81 3c be 41 a2 3d bf
       0.5275928 0.4138493 -0.18408728 -0.74075705
0003f0 d5 a3 6e be 3e d6 11 3f 3d 47 03 3f 0d 83 0a bf
       -0.23304684 0.5696753 0.51280576 -0.5410622

network.1.running_var f4 [512]
000000 ac 05 10 43 7d 78 16 44 9f bc 9d 42 64 3b 3c 43
       144.02216 601.8826 78.8684 188.232
000010 9b 3a 2b 43 d3 cb 69 43 7e 2e 7a 43 2f b7 9b 43
       171.22893 233.79619 250.18161 311.43112
000020 a7 df 1e 43 5f ab 11 43 fa 3e 44 43 4b 0a aa 42
       158.87364 145.66942 196.246 85.0201
000030 54 51 cb 43 16 5e 98 43 2f 5b 66 43 0a e8 c5 43
       406.63538 304.73505 230.35619 395.8128
000040 7e 53 1b 43 c1 63 37 43 67 f1 45 43 3a ff 5d 43
       155.32614 183.38966 197.94298 221.99698
000050 88 a0 7f 43 30 15 a9 42 d8 fb ac 43 dc 37 1f 43
       255.62708 84.54138 345.96753 159.2182
000060 fc 87 1c 43 b2 e1 68 42 c0 ef aa 42 35 33 79 43
       156.53119 58.220406 85.46826 249.20003
000070 ca ec 84 43 c0 53 06 43 12 07 a9 42 d8 18 ac 43
       265.8499 134.32715 84.51381 344.1941
000080 05 fc 67 43 0f a3 4f 43 e4 d1 0c 44 45 f4 90 43
       231.98445 207.63695 563.27954 289.90836
000090 42 5e ee 42 bc d8 17 43 0f 50 08 43 b1 52 28 44
       119.1841 151.84662 136.31273 673.29205
0000a0 e5 03 79 43 cc 8a 0a 43 f9 ae 1c 43 34 26 a9 43
       249.01521 138.54218 156.68349 338.29846
0000b0 4b 25 4e 43 98 a7 25 43 b8 ae 20 43 c5 80 1f 43
       206.14568 165.65466 160.6825 159.503
0000c0 46 49 4f 43 88 8e a4 43 39 17 52 42 c1 13 26 43
       207.28622 329.11353 52.52268 166.07716
0000d0 98 5e 77 43 20 5b 2c 43 ab 78 fa 42 02 12 c7 43
       247.3695 172.35596 125.23568 398.1407
0000e0 ae 3c 6a 43 3d 1d 3f 43 ee 93 41 42 8e 6c 3e 43
       234.23703 191.11421 48.394463 190.42404
0000f0 ee f8 af 43 3d 0c 49 43 16 36 d4 42 1d a3 f4 42
       351.94476 201.0478 106.10564 122.31858
000100 43 78 8c 43 f2 fa 04 43 97 65 d7 43 bc 28 a0 42
       280.93954 132.98026 430.79367 80.07956
000110 25 2a ce 43 e9 2e 7f 43 87 46 8d 43 7f 80 ab 43
       412.32925 255.18324 282.551 343.00388
000120 38 ce 04 44 fe 12 2f 43 df fb 1b 44 da ec b6 43
       531.22217 175.07419 623.9355 365.8504
000130 87 47 4c 43 fa 68 25 43 f7 66 e4 42 c4 44 f7 42
       204.2794 165.41006 114.2011 123.63431
000140 43 8b a4 43 9b 08 2f 43 55 8c 90 43 4f 09 e6 43
       329.08798 175.03362 289.09634 460.07272
000150 a9 f5 a8 43 da 61 3a 43 f3 4c bf 42 a6 9a 0d 43
       337.91922 186.38223 95.65029 141.6041
000160 6e 26 bb 43 90 6f 04 43 b3 9e 85 43 35 ce 76 43
       374.30023 132.43579 267.23984 246.8055
000170 20 13 52 43 88 26 07 43 61 8e 0e 43 d4 f4 22 43
       210.0747 135.15051 142.55617 162.95636
000180 ea d0 ea 42 24 41 2c 43 c2 ba 37 43 20 5f 05 43
       117.408035 172.25446 183.72952 133.37158
000190 0e 15 35 43 7a 2e b7 42 86 f7 ff 42 c7 87 11 43
       181.08224 91.590775 127.983444 145.53038
0001a0 d3 9c 25 43 25 09 eb 42 18 b0 c7 43 6d d3 23 44
       165.6126 117.51786 399.37573 655.3035
0001b0 47 32 60 43 60 41 15 43 94 25 14 43 47 b0 de 43
       224.1964 149.25537 148.14679 445.37717
0001c0 7e 01 06 43 a4 82 f0 42 73 36 9b 43 cb eb 5a 43
       134.00583 120.25516 310.42538 218.92107
0001d0 8c 77 11 43 43 83 0a 43 08 94 0d 43 0d 0a 9e 43
       145.46698 138.51274 141.57825 316.07852
0001e0 ce 10 53 43 cf 5c 0d 43 4c 9c 03 43 39 52 78 43
       211.06564 141.36253 131.61053 248.32118
0001f0 cf 3b c6 42 08 94 b5 43 7d fe b0 43 88 02 3a 43
       99.11681 363.1565 353.9882 186.00989
000200 3c b4 a7 42 96 02 87 43 65 b8 52 43 3b 06 eb 42
       83.85202 270.0202 210.72029 117.51217
000210 34 17 64 43 8d d0 1d 43 6e da 20 43 19 6e f5 42
       228.09064 157.81465 160.85324 122.715034
000220 f1 7d 99 42 b6 06 2f 44 4f d5 7f 43 17 e0 2f 43
       76.74598 700.10486 255.83324 175.87535
000230 7c dd 86 43 d6 e2 32 43 ec 7f c8 42 a6 77 2a 43
       269.73035 178.88608 100.24985 170.46738
000240 a3 4c 55 43 ff 38 80 43 35 7d ee 42 62 44 5b 43
       213.29936 256.44528 119.244545 219.26712
000250 e8 14 41 44 45 30 c2 43 74 4a 80 43 fa 3c 5d 43
       772.32666 388.3771 256.58167 221.23819
000260 df 03 7c 43 f0 84 8c 43 66 2f 88 43 7d 03 1b 43
       252.01512 281.03857 272.3703 155.01363
000270 cb 30 0f 43 2e 8e af 43 51 32 e4 42 4f 08 5a 43
       143.1906 351.11078 114.098274 218.03246
000280 2b 2f c0 43 55 c9 1f 43 35 e9 3a 43 7d 87 50 43
       384.3685 159.78645 186.91096 208.52925
000290 84 ea 6e 43 5c a5 41 43 24 38 7d 43 1d 11 7e 43
       238.91608 193.64594 253.2193 254.06685
0002a0 15 36 43 43 08 af ae 43 93 6d cf 43 ac 09 89 43
       195.21126 349.36743 414.85605 274.07556
0002b0 85 7a 2c 43 19 35 2d 43 63 4c 5e 43 37 a0 10 43
       172.47859 173.20741 222.29839 144.62584
0002c0 31 e7 6f 43 4c 28 26 43 b9 47 10 43 58 85 3c 43
       239.90309 166.15741 144.28017 188.52087
0002d0 b2 66 56 43 03 fe ea 42 b8 e2 60 43 4e 93 35 43
       214.40115 117.49612 224.88562 181.57541
0002e0 f6 79 db 43 55 a1 36 43 5a c8 94 43 b8 82 84 43
       438.95282 182.6302 297.56525 265.02124
0002f0 fc e5 f2 42 3e b2 1c 43 dc 9d 80 43 69 3c 8f 43
       121.44919 156.69626 257.23328 286.47195
000300 fb c4 70 43 33 5c c2 42 0b b6 52 42 12 0b 2f 43
       240.76945 97.18008 52.677776 175.04324
000310 c8 68 3f 43 f4 9e 1e 43 a7 88 97 43 5e aa 49 43
       191.4093 158.62091 303.0676 201.6655
000320 66 3b 4f 43 0b fc 68 43 0e ed a8 43 95 16 2d 43
       207.23203 232.98454 337.852 173.08821
000330 ec bd 47 43 46 7e 0a 43 4c 51 7c 43 de e7 30 43
       199.74188 138.49326 252.31757 176.90573
000340 a1 72 b8 42 e7 f5 c9 42 dc 7b 49 43 f7 71 85 43
       92.223885 100.98028 201.48383 266.89035
000350 19 33 f5 43 ba ce 21 43 b8 5d 0d 44 31 0f 18 43
       490.3992 161.80753 565.46436 152.05934
000360 93 40 21 43 16 f5 3f 43 21 db 1f 43 ca 28 10 43
       161.25224 191.95737 159.85597 144.15933
000370 17 ab f0 42 98 b1 6e 43 fa 86 8e 43 6c d7 fc 42
       120.33416 238.69373 285.0545 126.420746
000380 6d 51 1e 43 a0 8f f7 42 4d eb 1c 43 4f 50 0c 44
       158.31807 123.78052 156.91914 561.2548
000390 6e 19 33 43 51 12 42 43 ad 73 29 43 aa ef 7c 42
       179.09933 194.07155 169.45186 63.234047
0003a0 15 5f 31 43 6f 29 85 43 3a d5 ea 42 6c 98 99 43
       177.37141 266.3237 117.41646 307.1908
0003b0 11 1c b3 42 7d 32 d2 42 6b 5d cc 43 b5 7c a1 43
       89.55482 105.09861 408.72983 322.97427
0003c0 91 94 cd 42 c2 70 22 43 6e 72 60 43 74 9d 06 43
       102.79017 162.44046 224.44699 134.61505
0003d0 53 bd 52 43 38 12 d3 43 33 5d fe 42 3d b0 23 43
       210.73955 422.14233 127.18203 163.68843
0003e0 38 3a 18 43 4a 4d 10 43 6f 0d ed 42 b2 7d 83 43
       152.22742 144.30191 118.52624 262.982
0003f0 6d e7 01 43 fc c3 5d 43 16 72 66 43 10 ca 26 43
       129.904 221.76556 230.44565 166.7893

network.4.weight f4 [256, 512]
000000 41 91 8e 3f 95 5c 88 bf b5 d5 51 3f 54 00 01 bf
       1.1138078 -1.0653254 0.81966716 -0.50391126
000010 94 c9 39 3e 02 9f 2c bf 74 da c3 bd 7c b1 d5 bd
       0.18143302 -0.67430127 -0.09563151 -0.10434243
000020 94 79 ea 3e 5e f9 5a bf 22 ae 8d 3e e4 39 30 bf
       0.45795882 -0.85536754 0.27671915 -0.68838334
000030 e9 ae 38 be 22 bb 1c be 69 4b 20 be 0c 8a 39 3e
       -0.18035473 -0.1530576 -0.15653767 0.18119067
000040 e4 8b d1 3f 38 17 56 bf 7a ee 34 bf 49 a9 c4 be
       1.6370816 -0.8362918 -0.70676386 -0.38410404
000050 b9 b3 90 be 24 99 8b 3f f2 58 1b bf fa 5c 28 bf
       -0.28262118 1.090611 -0.60682595 -0.6576687
000060 2c 11 1b bf 33 9b 80 be c7 1f 93 3e ab 21 05 be
       -0.6057308 -0.25118408 0.28735182 -0.13001125
000070 a7 fa 2a be db a9 27 bf 4a b1 e8 3c dd 74 ed bd
       -0.16697179 -0.65493554 0.02840485 -0.115945555
000080 a5 d8 9b 3e 28 f5 32 3d 90 09 a3 bf 1c 32 03 bf
       0.30438724 0.04369083 -1.2737293 -0.51248336
000090 60 62 84 bf f0 0a fd be 08 ef 25 be ab a1 62 bf
       -1.0342522 -0.49422407 -0.16204464 -0.88527936
0000a0 48 24 0f 3e b9 40 75 3f a8 33 4e bf 90 e1 40 be
       0.13978684 0.95801884 -0.8054757 -0.18836045
0000b0 e8 e9 2a bc a3 e3 72 be 75 31 db be f4 48 ea 3c
       -0.010431744 -0.23719649 -0.4281117 0.02859924
0000c0 64 82 a7 bf ad d4 d3 3d 3c 5b 99 3c c7 a7 87 bf
       -1.3086667 0.10343299 0.018720262 -1.0598077
0000d0 23 cc fe be 4d 47 fb be b3 02 76 be 44 d9 50 3e
       -0.4976512 -0.49077836 -0.24024467 0.2039538
0000e0 45 c0 b1 be 5f 76 2d 3f 01 e0 cd bd 06 2c 1b bf
       -0.34717003 0.67758745 -0.10052491 -0.6061405
0000f0 1c e3 55 3d b2 1a 3b be 9f a7 fe 3e 20 b4 41 bf
       0.05221854 -0.18271902 0.4973726 -0.75665474
000100 ea 09 f3 be 71 1c 02 bf 0c b9 c8 bd 02 00 6e 3f
       -0.474685 -0.5082465 -0.0980092 0.9296876
000110 08 40 9a be ec 6d 6f be fd 66 08 bf 6d df 8e 3d
       -0.30126977 -0.23381776 -0.5328215 0.06976209
000120 23 0a a9 be 09 a2 1e bf 35 03 44 bf 0b 83 02 bf
       -0.33015546 -0.61965996 -0.76567394 -0.50981206
000130 7f 96 27 3e cb cf 36 bf d7 6c a7 3e 6a de 86 3f
       0.16366003 -0.71410817 0.32700226 1.0536625
000140 cf 03 8f 3d 09 46 9f 3e f6 bc ab be 07 59 ce bf
       0.06983148 0.3110812 -0.33542603 -1.6120919
000150 c1 44 f3 be f1 ef 40 bf 52 59 47 bf f6 0a 5b bf
       -0.47513393 -0.7536612 -0.77870667 -0.855636
000160 f9 d2 42 bd 8e cc 9b bf 5c 30 38 be 13 13 0b be
       -0.04756448 -1.21718 -0.17987198 -0.13581495
000170 9e 76 c9 3b 8b 17 06 bf 8b a3 87 3d c2 0a 85 be
       0.0061481735 -0.52379674 0.0662299 -0.2598477
000180 62 af 19 be 8c 30 81 bf 63 2f 80 bf 8f 1d 20 bf
       -0.1500831 -1.009294 -1.0014461 -0.625451
000190 48 71 ae be 69 a2 2a 3f 4c f0 7a bd 0e a4 00 bf
       -0.34070802 0.6665407 -0.06126432 -0.5025033
0001a0 3f 4f 23 bf c3 02 92 be 1c 7a e4 3e 71 83 3d 3e
       -0.63792795 -0.28517732 0.44624412 0.18507172
0001b0 e0 d0 fc be f3 2a ab be f7 20 10 3f 87 8b c2 3e
       -0.4937811 -0.33431205 0.563003 0.37997076
0001c0 ff e2 dd be 2d 83 ad bf 93 0e 1e bf 58 37 a0 bd
       -0.43337247 -1.3555657 -0.6174099 -0.07823056
0001d0 45 6a 95 bd 6c b9 a3 be 02 ca 83 bf 63 da 96 3e
       -0.0729566 -0.31977403 -1.0296023 0.2946349
0001e0 b1 ae d6 be 30 58 e7 bb 5a 8f 73 3e f8 92 02 be
       -0.41930154 -0.0070600733 0.23785153 -0.12751377
0001f0 49 fc d8 be 42 1a 59 be db d5 a5 3d 3a 47 77 bf
       -0.42379978 -0.21201423 0.0809743 -0.9659306
000200 4c 53 0b 3f b1 de a4 be 37 48 91 be ee 41 d9 3e
       0.54423976 -0.3220115 -0.28375408 0.42433113
000210 83 7f 7b bf 54 90 e1 be a6 82 2c bf 4b 51 c6 be
       -0.9824144 -0.44055426 -0.67386854 -0.38733897
000220 05 01 5a bf 35 d7 db 3e 78 67 28 bf 79 33 0d bf
       -0.85157806 0.42937627 -0.6578288 -0.55156666
000230 b0 79 78 be 3b 7c 2b bf bc 74 e7 be 58 5c 8f be
       -0.2426517 -0.66986436 -0.4520625 -0.2800014
000240 bd 63 83 3d 27 6c 4f 3d 90 e5 cc be 2e 41 ca 3c
       0.06415508 0.05064025 -0.40018892 0.024689283
000250 4f 05 ae be 32 d6 3a be ca a9 99 be 80 93 f9 bd
       -0.33988425 -0.18245772 -0.3001235 -0.121863365
000260 bc a1 44 bf 27 fa 3d bf 1b 9e d6 bd a0 06 27 3f
       -0.7680929 -0.7420983 -0.10479375 0.65244484
000270 1e 5b 4b 3f b1 1a 4c be 22 55 be bf b8 be d6 3b
       0.7943591 -0.19932057 -1.486973 0.006553497
000280 34 77 b3 3e 5a 1d 67 be cc 2e 43 3f d2 c8 42 bf
       0.35051882 -0.2256979 0.7624328 -0.7608768
000290 a8 fa 52 3f e7 fb a3 3e e9 7d 31 be 35 22 ae 3e
       0.8241372 0.32028124 -0.17333187 0.34010473
0002a0 2c f3 23 bf 86 a6 b7 be d4 13 85 3e 9c 1d b5 be
       -0.64042926 -0.35869235 0.2599169 -0.35374153
0002b0 74 7a 14 3e 49 1a 85 3e a9 2c 3d be 41 cb d4 bf
       0.14499837 0.25996616 -0.18474068 -1.6624528
0002c0 dc 06 64 be 6c 58 e7 be d3 27 f4 be 8c 84 75 3e
       -0.22268242 -0.45184648 -0.47686633 0.23976344
0002d0 53 4a d6 3e 60 04 9b bf f7 e1 a6 be 99 ff e2 3e
       0.4185358 -1.211071 -0.32594272 0.4433563
0002e0 f7 07 9a bc 75 af 4a 3e 7c 8c 5d bc 94 20 ac be
       -0.018802626 0.19793494 -0.013522264 -0.33618605
0002f0 fc ae 93 be ab 29 b6 3e 93 85 82 bd 3e 1f 56 bb
       -0.2884444 0.35578665 -0.063731335 -0.003267243
000300 ed 64 5d bd 2d d8 81 bf c5 81 53 3e 92 e9 62 bf
       -0.05405133 -1.0144097 0.20654972 -0.8863765
000310 ba 6c 2e 3e 31 5d 94 3f 32 6d aa bd a2 55 25 bf
       0.17033663 1.159094 -0.083216086 -0.6458379
000320 d9 86 ab 3d 4a 44 f0 bd 5c 57 09 3f 61 6b b3 bf
       0.083753295 -0.11731775 0.53648925 -1.4017144
000330 c0 f9 3f bf 7c 2b 4e 3f 94 1c 2b 3e e3 93 fc 3d
       -0.74990463 0.805351 0.1671012 0.12332895
000340 81 0e ef 3e bd 98 3f bf 40 51 12 be dc 97 23 be
       0.46690753 -0.74842435 -0.14288807 -0.15975899
000350 e5 80 46 bf 42 53 e2 be 50 a9 1f bf 00 b0 96 3e
       -0.7754043 -0.44204146 -0.62367725 0.29431152
000360 3e af 4a bf d6 c0 f0 3d 47 db 3a bf 44 fa ec be
       -0.7917365 0.117555305 -0.7299084 -0.46284688
000370 3a 4a bc 3e 14 19 98 be bd 8b 85 3f 11 20 d1 3f
       0.3677538 -0.29706633 1.043327 1.6337911
000380 d2 58 04 bf 05 48 8d bc 5d f3 28 bf ba 48 f1 3d
       -0.5169803 -0.017246256 -0.6599634 0.117814496
000390 38 ac dd 3e fe 08 97 3e 4e d2 84 bf 0e ec d3 bf
       0.43295455 0.29499048 -1.037668 -1.6556413
0003a0 9c cb 17 bd b0 fb 00 be 7d d0 b5 bd 8f 7c 02 3f
       -0.03705941 -0.12596011 -0.088776566 0.5097131
0003b0 8b 98 81 bf cb d6 5a 3e da 25 e6 bd 87 73 77 be
       -1.0124677 0.21371 -0.11237688 -0.24165164
0003c0 27 a9 e5 3e 84 b8 3e bf 29 ed 80 be b2 c0 30 3e
       0.44855615 -0.745003 -0.2518094 0.17261007
0003d0 2e 21 af be 16 81 85 bd a1 fe 10 bd db 4e 6b bf
       -0.34205002 -0.06518762 -0.035399083 -0.919172
0003e0 ae f2 6f bf a0 89 8e be 67 ff b2 3e f8 8b 9e 3c
       -0.93729675 -0.27839375 0.34960482 0.019353852
0003f0 50 a1 3d be b9 2a 6d bf 66 69 aa bf ff 7d a2 bf
       -0.18518567 -0.92643315 -1.3313415 -1.2694701
