project/models/best_nn_model.pth (torch, 947553 bytes, 25 tensors)

network.0.weight f4 [512, 112]
00000000: 2557 573e d573 723e 6a7d 7a3d bbb2 cdbc
00000010: c168 283f 0b55 83bd 04f3 98bd 691c 98bc
00000020: be09 81be f583 af3c dcbc 663d 11cf a23e
00000030: cc35 be3c b541 3abe 8bc0 ab3d 96e9 773e
00000040: 02aa 2b3e 9910 11bd e3f0 013d d726 0abb
00000050: a4e2 4e3e bfd7 913d 27c8 55bc aa0c 82bc
00000060: f639 0fbe 6c4f 963e ac9a 7dbd 2470 37bd
00000070: fc02 c7be 92cb 143d 9a47 3c3d eb52 123e
00000080: 3b6c d13d 0b0b 19be f3c9 51bc 4d8b 4ebe
00000090: 8c1f bf3d be6e 1abe 8a29 f3bd 7669 1dbe
000000a0: 19e9 4c3e 43cb 35be 0ad2 c53d 323a acbd
000000b0: 1a3e 89bd c3af 23bd f378 643c 2230 913b
000000c0: be75 38bf 5dc9 293e 2810 76bf 0d8c 183d
000000d0: 3cf1 af3e 6d34 873e c034 14bf e64e 893e
000000e0: 5606 08bf f2d8 f5bd 13bf 123e a491 e43e
000000f0: e39f da3e 846e 663d 5613 09bc 3be4 4d3d
00000100: b33e 2fbe 7188 4ebe 4268 523c 01db 2ebe
00000110: 447c 073e 098e 5cbe ae38 2abf 4408 1b3c
00000120: acf1 ee3d f996 e33d 950a af3d 8c5d 193e
00000130: a2cc 98bd cb0b 2abe bcac a9bf d9a4 2cc0
00000140: 1043 33c0 6fa3 00bf b8b9 20c0 72eb 2dc0
00000150: 3658 6f3e e91a 013f 39f9 29bd 19ce 6fbd
00000160: 8530 833c 0d07 f93d fbbc a63e f8cc cb3d
00000170: 3312 3c3e 9747 513e 13f9 5cba e911 a33e
00000180: 4f8f 47be c413 c13e e02c d93d c518 ca3d
00000190: 800d cbbc c233 ee3d 4340 a33d 1ab0 023e
000001a0: 662f 083d 8d29 693d 8933 8e3d 9dc3 a7bd
000001b0: f951 233e 0024 3f3d 16f8 0abe 1ca7 823d
000001c0: e890 bdbd 48e3 963d 8157 42bd 4f25 233d
000001d0: 67bd 973d 2f8d 343f 8818 2b3f 75fb 19bd
000001e0: 5ac2 04be 8884 febe ee56 a73e 3e82 093e
000001f0: aa40 033e 0407 f1be 5559 a13d 972e a4be
00000200: 4766 923d 3260 653e ad51 2e3d be76 ec3c
00000210: 7fb1 70be 0f4c 60bb 3a75 6fbd de60 8f3d
00000220: 7218 d0be f384 56be 1b29 bebd 0f94 a43d
00000230: a4e1 b03e 3b87 01bd 7bcc 003e 45d4 0a3e
00000240: 9c16 b33e ba0a 56bd 4656 2f3e 35f4 80bd
00000250: 5158 953c 3be1 0e3e e494 45bc 7070 a4bd
00000260: a43f 813e 99ac 7d3d 22ef 2f3c f1f1 393d
00000270: 92ad a73e 4c83 9f3b 0afa 16be 7823 b3bd
00000280: 8904 27bf d343 163e 784a e2be f85e 64be
00000290: de2e b93d c9e3 93bd c630 35be b33d 133f
000002a0: d3d8 043e f257 92be c808 52be b0bf 13be
000002b0: c29a 2bbd 93bc 813d 34cf a03e 4cdd b13e
000002c0: 3b1b 7cbe e5ff 45be 87fc a3be 8c1d 9abe
000002d0: 3efb 8d3e 2081 fc3e e971 bfbe 2d59 133f
000002e0: eb2b 543f 21f5 21be 4c6b 103f c8a3 743d
000002f0: 117d 9f3e 9627 96be df17 a0be 4d79 10bf
00000300: f39b 0abf 3eeb 86bf 700e 01c0 1162 1bc0
00000310: 639f 1f3e 27cf 3b3e f828 b13d 09cd 8a3d
00000320: 15c1 3a3d 51fe 0dbe 8178 463d aee4 053e
00000330: a52c 9d3d 2cfe 403e 6178 353e 4eae 9c3c
00000340: 01e4 083d 3065 443e 16c7 4cbe 6e77 79bc
00000350: 710c b4bd 8574 483e da07 a9be df78 9cbd
00000360: 7726 203e 5c1d e43e a2f1 d6bd 69c3 3dbe
00000370: 512e 343d 10e4 85bd 3323 333e cb3a dc3d
00000380: 34a9 063e e797 87be 2f9c 0f3d 7e43 583d
00000390: d182 c8bd 690b 02bd ca03 73bd 72ff 0dbe
000003a0: 2dfe 4fbe 6a3e 103e 8cb2 00be 27fd 7f3e
000003b0: 1d41 6a3e f27b 893e 6d51 ee3d c6f4 99ba
000003c0: 6404 3cbc ebcb bbbd dff2 f5bb 18b5 b63c
000003d0: 456e 02be 11d0 33be 16ff 08bd e0a8 8cbd
000003e0: 0095 9a3d 8cfd 803f fdbb 253c e2ba e3bc
000003f0: ad91 7dbe 742f 1f3e b0a7 0c3e 4d52 5c3b
0.21029337 0.23676999 0.06115476 -0.02510964 0.6578484 -0.06412705 -0.074682266 -0.018568235
-0.25202745 0.021425227 0.056332454 0.31798604 0.023219012 -0.18189128 0.08386334 0.242102
0.16764072 -0.03541622 0.031723868 -0.002108028 0.20203644 0.071212284 -0.013048208 -0.01587518
-0.13986954 0.2935747 -0.061915085 -0.04478468 -0.38869464 0.036326952 0.045966722 0.14289443
0.102257214 -0.14945619 -0.012804496 -0.20170327 0.09332189 -0.15081307 -0.11873157 -0.15372261
0.20010795 -0.1775332 0.096592024 -0.084095374 -0.06701298 -0.03996254 0.013944852 0.0044307867
-0.7205466 0.1658072 -0.961184 0.037242938 0.34363735 0.26407185 -0.5789299 0.26818007
-0.5313467 -0.1200427 0.14330702 0.44642365 0.4270011 0.05625774 -0.008366426 0.050266486
-0.17113762 -0.20169236 0.01284224 -0.17075731 0.13230997 -0.21538557 -0.66492736 0.00946242
0.11667189 0.1111278 0.0854694 0.14977092 -0.074609056 -0.16606061 -1.3255839 -2.6975615
-2.8009682 -0.5024938 -2.5113354 -2.7174954 0.23373494 0.50431687 -0.041497443 -0.05854616
0.016014347 0.12159548 0.32566056 0.09951204 0.18366317 0.20437466 -0.0008429449 0.31849602
-0.19488262 0.37710392 0.10604262 0.09868006 -0.02478671 0.11630966 0.07971241 0.1276249
0.033248328 0.05692439 0.06943423 -0.08191607 0.15949239 0.04666519 -0.135712 0.0637953
-0.09256154 0.07367569 -0.04744673 0.039830502 0.074091725 0.7052793 0.66834307 -0.037593324
-0.12964764 -0.49710488 0.3268351 0.1342859 0.12817636 -0.47075665 0.07878367 -0.32066795
0.07148414 0.22399977 0.04255836 0.028865214 -0.2350521 -0.0034225022 -0.058461405 0.07000898
-0.4064365 -0.20949154 -0.09285184 0.080360524 0.3454715 -0.031623106 0.12578003 0.13557537
0.34978187 -0.052256323 0.17122754 -0.06296579 0.01823059 0.13953106 -0.012059424 -0.08029258
0.25243866 0.06193218 0.010738166 0.04539675 0.3274961 0.0048679467 -0.1474382 -0.087469995
-0.65241295 0.1467431 -0.4419744 -0.22301853 0.09042142 -0.07221181 -0.17694387 0.5751602
0.12973337 -0.28582722 -0.20511162 -0.14428592 -0.041895635 0.06334796 0.31408083 0.3473915
-0.24619763 -0.19335897 -0.320286 -0.30100667 0.27730745 0.49317265 -0.37391594 0.57557946
0.82879514 -0.15816166 0.5641372 0.059726506 0.31150106 -0.29327077 -0.31268212 -0.5643509
-0.5414421 -1.054054 -2.0165062 -2.4278605 0.15588145 0.18340741 0.08650392 0.067773886
0.045594294 -0.13866545 0.048454765 0.13075516 0.07674531 0.18846959 0.17721702 0.019126084
0.033420566 0.19179225 -0.1999782 -0.015226228 -0.087914355 0.19575699 -0.33013803 -0.07640242
0.15639673 0.4455365 -0.104953066 -0.18531574 0.043989483 -0.0653764 0.17493896 0.10753401
0.13150483 -0.2648308 0.035061058 0.05279874 -0.09790576 -0.031749163 -0.059329785 -0.13866976
-0.20311804 0.14086309 -0.1256811 0.24998914 0.22876401 0.26852375 0.116366245 -0.0011745922
-0.011475656 -0.09169754 -0.007505759 0.02230315 -0.12737377 -0.1755984 -0.033446394 -0.06868148
0.07547951 1.0077376 0.010115621 -0.027799074 -0.24762602 0.15545446 0.13735843 0.003361839

network.0.bias f4 [512]
00000000: d473 1537 033a be39 153d 82ba ea3d d5b9
00000010: 7f1f 9e38 1e84 b13a 6b2a 1139 22a2 3939
00000020: 28aa e2b7 7b8c a238 3aef adb8 06ba a8b9
00000030: 5a3a 813a 6201 a238 7fec f0b7 1eeb 8d3a
00000040: eda1 ba39 a6fc 003a 203a 85b8 960f 00ba
00000050: 9042 9b3a 4abe 4338 28b7 f039 67d1 0339
00000060: 23e5 10ba d544 5038 eacb bb39 5827 a339
00000070: 7b7e 1f38 d290 05ba f7c8 1439 13af 45b9
00000080: 3ba9 17b9 06e7 923a cf02 8cba 66e7 533a
00000090: 3d28 943a 9552 003a 9acc 05b7 b2ec 5e39
000000a0: ed4e c939 6504 6cb9 0357 4637 2129 a9b7
000000b0: a513 ba38 9658 c438 c5c3 763a 2928 1f3a
000000c0: 20a2 95b9 fa00 e438 96ba 7f39 3cb8 48b9
000000d0: 79dc d939 401f e3ba 4601 8039 4865 34b9
000000e0: 083c a4b9 f602 ad38 cec0 3539 b646 b83a
000000f0: f399 8839 dd2f b9ba ac17 9e39 bf42 833a
00000100: 8178 633a fa5a dfb9 aa2a 13ba 91f7 5538
00000110: 9f55 0bba 0fbc 59b9 fb27 d539 c321 9b39
00000120: 02f1 9e38 e728 9338 8fca 04b9 7799 c1b7
00000130: 4c84 20ba 59f6 70ba 69da fdb7 f8a7 6ab9
00000140: 0930 b139 a6b2 c5b9 4fa1 383a 4a5e 5538
00000150: 5d2a 7ab9 af82 0f3a 283d 8139 938c bbb8
00000160: a087 37b8 eeab 8bb9 1e40 543a 6112 1239
00000170: 19ac bbba 2de3 94b6 012b 95ba 5bad ddb8
00000180: 5e71 10ba 946c 3339 a17d 68ba 4263 e1b9
00000190: b552 a2b9 84c7 a2b8 2c3a c7b9 d850 2bb9
000001a0: 2781 b7b9 2826 f238 d7e2 1f3a 3ddd 97b9
000001b0: e304 bd39 6816 f0b8 64c9 8bba 00a4 10ba
000001c0: a2ac 2a3a 95cd 3ab9 b436 d639 6e19 dab8
000001d0: dfd8 5d3a 7053 da39 7214 bab9 6608 7aba
000001e0: 81c7 beb8 4e03 64b8 3567 9bb9 6360 6839
000001f0: 8ee6 b1b9 6519 e537 bab6 afb9 3a13 733a
00000200: 4867 3aba 942e ffb9 7e1b b238 e145 173a
00000210: c137 5bb9 954f 8bba e1c5 22ba 5a65 1eb9
00000220: 561c d1b8 7dfb 8a39 28de 1b3a e1c4 4eb9
00000230: 0ff7 dc39 048a 24b9 4ae6 1eba 7913 373a
00000240: fc3a 043a 3644 9038 e30f b6b9 8e60 cab8
00000250: 09cc 043a 3b5e 37b9 1c02 8fb9 c82e 04b9
00000260: 196a 6e38 48fe 8639 fa5a 063b 530d 13b9
00000270: 272d 4239 1e74 55b9 b835 ecb7 4188 1fba
00000280: c236 8339 ce87 4fb9 c3e6 0839 d0e4 aa38
00000290: 3e6f 163a 1d91 0b3a a74e 0839 d516 db3a
000002a0: b902 45b9 8447 203a 5971 da39 88c6 f239
000002b0: 4638 2c38 2aa5 5d3a e04b 2fb8 bb46 8e39
000002c0: 788e 3a3a aa61 283a 01c6 c3b9 3bc7 3839
000002d0: 2932 4eba 8403 7fb9 d3fc 7eb9 d396 06b9
000002e0: d6bb 8cba 568d 5eba 77d5 0e3a 65e7 4b39
000002f0: 1c48 8c3a ca3d 08b9 b8d2 9539 07ec 6e39
00000300: a662 3339 ebe2 f539 5f57 f237 a0b6 043a
00000310: 6b17 153a 8a05 103a 28e0 0539 76c8 85ba
00000320: 3ddc c937 265e c2b7 5f8a 383a c0d0 c339
00000330: 0859 4dba 88d3 47ba 40bc 77b8 4243 0238
00000340: 7651 a039 8ba8 fab9 39fa 9c39 88e8 15ba
00000350: 3832 9e39 1d8d 093a 819b 12b9 19d9 02b8
00000360: f9f2 f939 435e c3b8 d879 0e3a 977a a837
00000370: 74ce 38b9 9b71 ff39 7273 7739 48c8 ec39
00000380: af2f 48b9 1c99 dc38 2810 29ba d616 6bba
00000390: c220 4cb8 a394 36b8 8e5e 7aba f4cd 35b9
000003a0: 0664 26b9 0606 dab9 f4bd a0b7 27d8 e238
000003b0: 9d19 c0b9 38cc 06ba 6f52 36ba 3db6 0139
000003c0: 850a 94ba f773 1cba 7493 5dba c59e 95ba
000003d0: 2183 0d39 1aa3 5e39 e4d6 b3b9 1d71 5139
000003e0: b965 c833 eb80 11b9 548d 383a f354 d5b9
000003f0: 038d 0fb9 42be 8939 e9d0 9bb9 78b4 9139
8.90806e-06 0.00036282846 -0.0009936417 -0.00040672655 7.539894e-05 0.0013543402 0.0001384408 0.00017703374
-2.7020535e-05 7.7509285e-05 -8.293842e-05 -0.00032182055 0.0009859309 7.7250195e-05 -2.8720357e-05 0.0010827517
0.0003559733 0.000492046 -6.352761e-05 -0.0004885135 0.0011845399 4.6668843e-05 0.0004591283 0.00012571142
-0.0005527308 4.965517e-05 0.00035819347 0.00031119096 3.802635e-05 -0.0005095127 0.00014189245 -0.00018852604
-0.00014463525 0.0011207766 -0.0010681989 0.0008083492 0.0011303496 0.0004895118 -7.975055e-06 0.00021259746
0.00038396512 -0.00022508351 1.1821979e-05 -2.0165522e-05 8.87283e-05 9.362509e-05 0.0009413327 0.0006071353
-0.00028540287 0.00010872069 0.00024388204 -0.00019142119 0.0004155373 -0.0017328039 0.0002441501 -0.00017203868
-0.00031325244 8.249834e-05 0.0001733333 0.001405916 0.00026054643 -0.0014128644 0.00030153745 0.0010014399
0.0008677319 -0.00042601657 -0.00056139624 5.101372e-05 -0.0005315188 -0.0002076479 0.00040656314 0.00029589058
7.578918e-05 7.017125e-05 -0.0001266396 -2.3078856e-05 -0.00061232294 -0.0009191982 -3.0261655e-05 -0.00022378552
0.0003379586 -0.00037707872 0.000704308 5.087097e-05 -0.0002385764 0.00054744905 0.00024650362 -8.943039e-05
-4.375691e-05 -0.00026640244 0.00080967124 0.00013930492 -0.0014318257 -4.4371905e-06 -0.0011380614 -0.00010570391
-0.0005510057 0.00017111219 -0.0008868818 -0.00042989297 -0.0003096067 -7.761925e-05 -0.0003799958 -0.00016337947
-0.00035000706 0.000115465664 0.00060991704 -0.000289658 0.0003605253 -0.00011448265 -0.0010664877 -0.0005517602
0.00065107096 -0.00017814928 0.00040858018 -0.00010399787 0.0008462797 0.00041642366 -0.00035491918 -0.00095379946
-9.0970665e-05 -5.4362514e-05 -0.000296408 0.00022161151 -0.00033931847 2.7310753e-05 -0.00033514743 0.00092725793
-0.0007110727 -0.00048672094 8.492822e-05 0.00057706056 -0.00020906237 -0.0010628576 -0.0006209296 -0.0001510581
-9.9711746e-05 0.00026508785 0.00059458846 -0.00019719034 0.00042145743 -0.00015691674 -0.00060615374 0.00069837976
0.000504419 6.87916e-05 -0.00034725582 -9.650095e-05 0.0005065804 -0.00017487344 -0.00027276657 -0.00012605928
5.6842433e-05 0.00025747926 0.0020501004 -0.00014023976 0.00018518102 -0.0002035652 -2.8158407e-05 -0.0006085672
0.00025027065 -0.0001979165 0.00013055936 8.148851e-05 0.0005738622 0.0005324053 0.00012999271 0.0016715178
-0.00018788398 0.0006114172 0.0004166465 0.00046305754 4.1060404e-05 0.00084550923 -4.1793915e-05 0.0002713705
0.00071165664 0.00064232445 -0.00037340823 0.00017621827 -0.0007865751 -0.00024320005 -0.00024317512 -0.00012835422
-0.0010737132 -0.00084896886 0.0005448679 0.0001944579 0.0010702643 -0.00012992989 0.00028576492 0.00022785376
0.0001710752 0.0004689911 2.8889333e-05 0.00050626136 0.00056873885 0.00054939894 0.00012767373 -0.0010206837
2.4063624e-05 -2.3170443e-05 0.0007039662 0.0003734883 -0.0007833396 -0.0007622768 -5.906471e-05 3.1057054e-05
0.0003057827 -0.0004780929 0.0002994107 -0.0005718549 0.00030173524 0.0005247163 -0.00013981575 -3.1196603e-05
0.0004767401 -9.315882e-05 0.0005435026 2.0084246e-05 -0.00017624517 0.00048722033 0.00023598762 0.0004516265
-0.0001909125 0.00010518936 -0.0006449246 -0.00089679414 -4.86679e-05 -4.353061e-05 -0.0009550833 -0.00017338229
-0.00015868255 -0.00041584688 -1.916194e-05 0.00010816781 -0.00036640177 -0.00051421253 -0.00069550326 0.00012370288
-0.0011294639 -0.0005968208 -0.0008452453 -0.0011415115 0.00013495657 0.0002123233 -0.00034301647 0.00019973931
9.331729e-08 -0.00013876303 0.00070401025 -0.00040689818 -0.00013690074 0.0002627243 -0.00029719554 0.00027791015

network.1.weight f4 [512]
00000000: 9e26 6a3f c7b8 823f 80f6 4f3f 9aca ef3e
00000010: f64a 683f ed5b 643f f0d6 183f 23ad 2c3f
00000020: 6405 233f 624d 3e3f d5b6 633f f3fe 683f
00000030: 8c03 813f 0b26 333f 041d 853f 2924 713f
00000040: 7bad 143f 3691 503f 55ba 503f c3eb 1b3f
00000050: f9b0 6f3f 0ccb 2a3f 4446 3e3f b9c7 3f3f
00000060: 0e5b 823f 33bb 863f 8293 2b3f 8f9c 093f
00000070: 1954 123f 72e4 1f3f 0e94 2c3f cef2 253f
00000080: 90d1 493f a79c 293f 47fa 1e3f 4b1a 7c3f
00000090: 1e6d 253f 8d78 133f f7a6 0f3f b19e 363f
000000a0: 6e15 263f 5d41 6e3f 67ad ea3e 1677 313f
000000b0: 5606 493f 303f 203f 3014 3f3f 74d6 593f
000000c0: 3bce 253f cfe0 643f fee7 6c3f 69fa 273f
000000d0: 366e 313f eb58 5a3f 5fcb 233f cd5a 233f
000000e0: 43fb 673f 9a20 663f af2d 373f 1ebc 733f
000000f0: 4491 323f 0e7e 423f b75c 4e3f f47f 683f
00000100: 2616 683f 54a8 263f fdb6 5b3f d8b4 243f
00000110: d374 3f3f 0df0 293f 4eb0 633f b0f0 fb3e
00000120: 12fc 393f 44f8 353f dce6 453f 8f03 4f3f
00000130: b430 3e3f a0d1 4c3f 0c70 2b3f f028 743f
00000140: 85f6 623f 9471 673f e12a 5e3f 8293 413f
00000150: e7a6 353f 18b1 453f 855b 343f 394e 663f
00000160: 6e50 fe3e d144 4f3f 373e 153f 3672 5a3f
00000170: 6bef 2e3f 4d04 213f e303 313f a0b3 7a3f
00000180: 10f9 283f 2512 2a3f a6be 203f ab17 813f
00000190: d91a 4a3f 5f02 593f 43f8 1b3f 4177 2b3f
000001a0: b363 353f 9efa 083f 529b 493f 434a 503f
000001b0: ff5b 463f bcb1 133f 66ee 383f 3f06 823f
000001c0: 5607 4a3f 2304 793f 7092 543f e6d1 433f
000001d0: aabb 5a3f f228 753f c930 4e3f c7d4 373f
000001e0: f345 483f e5bb 223f 8957 503f fbf9 393f
000001f0: 2429 1e3f 0f4f 493f e3fc 1e3f 38c8 193f
00000200: 50e5 393f 7f26 273f 00f5 443f 4673 4a3f
00000210: 2b64 533f 0d62 1d3f d5b9 2a3f cb1a 643f
00000220: 1155 633f a514 263f 0ebf 693f e7e6 523f
00000230: c72d 443f 3725 4c3f c50e 4e3f 7264 593f
00000240: 7b6a 153f 0748 403f f55f 623f 5eab 4d3f
00000250: 7054 343f f1e6 6b3f bfe3 553f 6d4d 663f
00000260: bf3f 433f ec71 573f 4474 653f 09cc 2d3f
00000270: 9243 773f 5646 203f ee77 163f 1f91 113f
00000280: 9c32 273f 5cc1 333f 43d9 543f e220 443f
00000290: fc5e 403f d9f8 293f abfd 313f c1b4 623f
000002a0: bedc 223f f5e7 533f bc6f 3f3f 4a4a 1a3f
000002b0: d116 2d3f 4cce 333f 6e53 613f 7e20 373f
000002c0: 06cc 213f 7cc9 113f 8f84 4d3f 4265 6c3f
000002d0: fd0e 493f a153 013f d6f8 803f 88f6 583f
000002e0: 81fe 443f d7f3 483f c4df 093f 9541 153f
000002f0: 9cca 4a3f 132a 3c3f dea3 283f 24f4 573f
00000300: 496c 2c3f 1688 6d3f 2de5 0a3f b821 443f
00000310: e4fe 2f3f bc70 423f cf6f 623f 0482 1b3f
00000320: f4eb 173f 9a35 733f b04f 6a3f bd97 f73e
00000330: e40f 2f3f 1cdc 7a3f 5c9d 1a3f 4501 da3e
00000340: 9741 1d3f fcfd 273f be60 6c3f 93c7 373f
00000350: 79ad 503f 5f28 203f af93 623f 3f29 223f
00000360: a331 3d3f ea90 283f ed79 603f b0d0 5f3f
00000370: 11bc 6b3f cf79 6a3f a426 263f 3ba5 2f3f
00000380: c8ff 4e3f 5156 393f 9859 243f 7b63 1f3f
00000390: 1c42 2d3f 1645 363f 327f 6b3f a561 1c3f
000003a0: 58bf a93e d6ff 213f 08f6 003f 3444 2c3f
000003b0: fb09 273f 34b5 123f 0cc8 633f b8c9 433f
000003c0: 7609 4b3f 72ac 033f 25d8 7f3f 8572 1f3f
000003d0: 51c0 763f dac7 513f 771b 6a3f c5c9 5e3f
000003e0: efb8 8e3e cc9a 2d3f e3ed 8b3f 6ef0 813f
000003f0: 4c12 253f b41f 113f 0b83 2e3f 9d39 4b3f
0.91465175 1.021264 0.81235504 0.4683426 0.9073938 0.8920277 0.5970297 0.67451686
0.636801 0.74336827 0.88950855 0.9101402 1.0079207 0.69979924 1.039948 0.941958
0.5807721 0.81471574 0.8153432 0.6090662 0.93629414 0.66716075 0.74325967 0.7491413
1.0184038 1.0525879 0.67021954 0.53754514 0.5715957 0.62457955 0.67413414 0.64823616
0.7883539 0.6625466 0.6210064 0.9847762 0.64619625 0.5760582 0.56114143 0.71335894
0.6487645 0.93068486 0.4583542 0.69322336 0.7852529 0.62596416 0.7464018 0.85092854
0.6476781 0.8940553 0.9254149 0.6561647 0.69308794 0.8529193 0.63982195 0.63810426
0.9061777 0.89893496 0.7155408 0.9520892 0.6975291 0.75973594 0.8061022 0.9082024
0.90658796 0.651006 0.8582609 0.64338446 0.74787635 0.66381913 0.88940895 0.49207067
0.72650254 0.7108195 0.7730539 0.80864805 0.74293065 0.8000736 0.66967845 0.95374966
0.8865741 0.9040768 0.8678418 0.75615704 0.709578 0.7722335 0.7045215 0.8996311
0.49670738 0.8096438 0.5829806 0.8533052 0.6833407 0.6289719 0.69146556 0.97930336
0.6600504 0.66433936 0.62790906 1.0085348 0.78947216 0.84769243 0.6092569 0.6697884
0.70855254 0.5350741 0.78752625 0.81363314 0.77484125 0.57693076 0.7223877 1.0158156
0.78917444 0.9727194 0.83035946 0.76492155 0.854426 0.957656 0.8054319 0.7180905
0.78231734 0.63567954 0.8138357 0.72647065 0.61781526 0.7863626 0.62104625 0.60071135
0.7261553 0.65293115 0.7693634 0.79082143 0.8257472 0.6147774 0.6668981 0.8910338
0.88801676 0.6487525 0.9130715 0.8238358 0.7663235 0.79744285 0.80491287 0.8491889
0.583656 0.75109905 0.8842767 0.8033961 0.7044134 0.92149264 0.8355064 0.8996189
0.76269144 0.84158206 0.8963053 0.6788946 0.9658748 0.62607324 0.5877675 0.5686206
0.653116 0.7021692 0.83144015 0.76612675 0.75144935 0.66395336 0.6952769 0.8855706
0.63618076 0.82775813 0.7477987 0.60269606 0.6761294 0.7023666 0.8801793 0.71533954
0.6320194 0.56948066 0.80280393 0.9234201 0.78538495 0.5051823 1.0075939 0.84751177
0.7695084 0.7849707 0.53857064 0.58303195 0.7921541 0.735017 0.6587504 0.84356904
0.6735273 0.92785776 0.54255944 0.7661395 0.6874831 0.7595327 0.88451856 0.60745263
0.5934441 0.95003664 0.91527843 0.48357955 0.6838362 0.9799211 0.6039636 0.42579094
0.6142821 0.65621924 0.92335117 0.717889 0.815147 0.625616 0.885066 0.63344187
0.73903865 0.6584612 0.87686044 0.87427807 0.9208384 0.91592115 0.6490271 0.68611497
0.8085904 0.72397333 0.6419921 0.6226117 0.67679 0.71199167 0.9199096 0.61086494
0.33153796 0.63281 0.50375414 0.6729157 0.65249604 0.57307744 0.8897712 0.76479673
0.7931131 0.51435006 0.99939185 0.6228412 0.963872 0.81945574 0.9144816 0.87026626
0.27875468 0.67814326 1.0931972 1.0151498 0.64481044 0.56689 0.68168706 0.79384786

network.1.bias f4 [512]
00000000: 96a4 edbe b1a5 a6bf 1e34 f6be 06c6 75be
00000010: b7d1 02bf 329d 09bf 44e1 f83c fb88 d7bf
00000020: c227 33be cee3 09bf 7d54 5cbf 6c95 94be
00000030: 01fa 72bf b5fa b2be c348 2abf c7b0 b7bf
00000040: e577 47bd 8075 91bf 8bf0 9fbf 9346 aebc
00000050: 01bc a4bf c9c7 7abf 9604 4abf 90eb 94bf
00000060: 5498 b2bf e5ae 9abf cadc 81bf 5e93 d7bf
00000070: bb13 afbf 02fb 48bf a97c a4bf 0ca8 39bf
00000080: 44b7 8fbf 4afd dcbe aed0 12bd caad 7cbf
00000090: 2db7 0abe 1b61 193d cfad c5bf cd64 3abf
000000a0: 325e f3be 8359 c7be df50 59bc a62d 50bf
000000b0: 687c 2bbe 4f51 3fbd db88 5cbd c00a cdbf
000000c0: c335 93bf fcff 37bf bc59 83bf 7244 a1be
000000d0: 95ac eabe d860 d1bf ca34 28bd 1121 ecbc
000000e0: 14c1 43bf 16dc 22bf 4503 843d 3d43 66bf
000000f0: c446 283d 2112 8ebe 2008 97be 9be9 75bf
00000100: 7274 8fbf 7d8b 21bb 0a5c 72bf 68d5 45be
00000110: 3c40 1cbe 37f1 a6be eecb 12bf 05b5 38be
00000120: 5982 00be 595f 51bf ff7f e7be 6dbb 16bf
00000130: 1ae8 0ebf 3be4 9b3c 604f 9fbf 8735 3dbf
00000140: 9a89 e3be 85a1 80bf ee56 acbf 238e acbf
00000150: 587d b5bf dad9 aebf d5ec 11bf 9f5c 0dbf
00000160: 4aae 61bf e3c1 93bf b469 29be f12b 20bf
00000170: b922 54be 26eb b8be ee19 32bd 9d21 13bf
00000180: 8f69 01bf 89a0 743c d38f c1bd 2656 a9bf
00000190: f6dd 11bf 3028 8abf 5665 83be a29c 97bf
000001a0: dc82 13bf 368d 4fbe 689c 39bd 174d 82bf
000001b0: d462 8cbf 1b9e c9bc 71fc 2fbe e964 81bf
000001c0: 6e15 8dbf c52a 73bf 8c82 21bf 8256 0dbf
000001d0: 88e9 a8bf bba3 dfbf 720f 2fbf fd09 42bd
000001e0: a8e6 8ebe 8d04 2cbf 2541 4fbf 29b4 15bf
000001f0: fd6e cabd 8a22 e5be e3c6 a8bd 545e f3be
00000200: e62a 9dbf e788 a1be f13f 7fbf dd06 c8be
00000210: 7433 0bbf 3597 f33c b4c5 c5bd 157a 33bf
00000220: 5c64 edbe 40ee 09bf aab0 31bf 0de8 c2be
00000230: 247c 70bf ff13 5fbf 06a2 b7bf 919a 4cbf
00000240: 5648 c13b d4a8 68bf 51c1 40bf a415 e6be
00000250: 7206 53bf ca38 ddbf e08d 6abf 740f 44bf
00000260: 6991 62bf c8a9 38be fd21 c8bf 434e a4be
00000270: 9c2d fdbf 9955 60bf c366 c5bc 6cc3 673d
00000280: 5b93 31be 0818 56bf 4187 67bf e2ff 3bbf
00000290: 0023 51bf d3f8 86be 82b9 a8bd cfa4 c7bf
000002a0: 5669 2ebe 6eac 99be aa0e 04c0 8d76 75bd
000002b0: 1dde aebf 096e f2be d403 7cbe cd0d 6bbf
000002c0: b2ef adbd fc23 11bd 9f94 afbe 537b 34bf
000002d0: 1553 46be 0ead c4be e64e 52bf 8c14 54bf
000002e0: 1f3e 97bf 5639 96bf 14b4 33be d18e 31be
000002f0: 5afc 37bf 6ce2 06bf d661 4ebf f3cf 37bf
00000300: 6eb2 12c0 6647 a7bf 4e57 febf 92df e0be
00000310: 42b1 31bd 4fc6 1cbf 9a21 1ebf e11b e13b
00000320: acb8 9ebd b3bb 88bf 2c00 1cbf 3673 ac3d
00000330: b232 6abe e968 57bf cf58 7bbe c837 82bd
00000340: 03bd 28bf cf49 a1be 5f4e 91bf be4b 3ebd
00000350: 3de5 aebf 43c4 55bd a07a 31bf 4691 12bf
00000360: b968 a6bd a919 74bf 0afa 9abf 8ac2 39bf
00000370: c516 10bf ef93 8cbf 5302 d6be d142 9abe
00000380: ee31 1ebf 7055 073e 8e90 f4bc c8aa 82bb
00000390: c143 95be 9d4e bfbe 1a76 1bbf c3c7 e5bd
000003a0: c42d 843d 6e88 4ebf b061 96bc 94cd 59bf
000003b0: 7f39 d8bc 7599 d0be 085b 06bf a871 babf
000003c0: 3837 5bbe df8f adbd dcf4 4bbf 4e5b 00bd
000003d0: 54f2 06bf 0085 75bf 233c 0dbf 47a3 87bf
000003e0: a28d 42bf 890f 11bf 151c 77bf 90a4 63bf
000003f0: 2774 eebf 8eaf 29be c3b3 a9bd 91d2 39bf
-0.46414632 -1.3019315 -0.48086637 -0.24001321 -0.5110125 -0.53755486 0.030380853 -1.6838678
-0.17495635 -0.5386323 -0.8606642 -0.2902025 -0.94912726 -0.349569 -0.66517276 -1.4350823
-0.048698325 -1.1363983 -1.2495283 -0.021273887 -1.2869874 -0.979611 -0.7891325 -1.1634388
-1.3952737 -1.2084624 -1.0145504 -1.6841848 -1.3677896 -0.7850801 -1.2850543 -0.72522044
-1.1227803 -0.43161994 -0.035843544 -0.9870268 -0.13546439 0.037446123 -1.5443667 -0.7281006
-0.47532803 -0.3893548 -0.01326391 -0.81319654 -0.16746676 -0.0467084 -0.053841453 -1.6018906
-1.1500782 -0.71874976 -1.026176 -0.31497532 -0.45834795 -1.6357679 -0.04106597 -0.028824361
-0.7646649 -0.63617074 0.06445936 -0.8994635 0.041083112 -0.27748206 -0.29498386 -0.9605958
-1.1207411 -0.0024649792 -0.9467169 -0.1931969 -0.15258878 -0.32605907 -0.5734242 -0.18037803
-0.12549724 -0.81786114 -0.4521484 -0.5887974 -0.5582291 0.019029727 -1.2446098 -0.739098
-0.4444092 -1.0049292 -1.3464029 -1.3480877 -1.4178877 -1.3660233 -0.57002 -0.55219454
-0.8815657 -1.1543545 -0.16544229 -0.6256705 -0.2071637 -0.36116904 -0.04348176 -0.57473165
-0.50551695 0.014930853 -0.094512604 -1.3229415 -0.5697931 -1.0793514 -0.2566325 -1.1844676
-0.5762155 -0.20268711 -0.045315176 -1.0179776 -1.096766 -0.024611523 -0.17186143 -1.010892
-1.1022165 -0.94987136 -0.63089824 -0.55210125 -1.3196268 -1.7471842 -0.6838294 -0.047372807
-0.27910352 -0.67194444 -0.8095878 -0.5847803 -0.098844506 -0.44752914 -0.0824106 -0.47532904
-1.2278717 -0.3154976 -0.9970694 -0.39067736 -0.54375386 0.029735187 -0.096568495 -0.7010816
-0.4636563 -0.53879166 -0.6941019 -0.38067666 -0.93939424 -0.87139887 -1.4346321 -0.7992335
0.0058985157 -0.9088261 -0.7529498 -0.44938385 -0.8243171 -1.7282956 -0.91622734 -0.7658608
-0.8850313 -0.18033516 -1.5635372 -0.3209096 -1.9779544 -0.8763061 -0.024096852 0.056582853
-0.17341368 -0.8363042 -0.90440756 -0.7343732 -0.8169403 -0.26361713 -0.08238508 -1.559717
-0.1703237 -0.30014366 -2.063395 -0.059927512 -1.3661534 -0.47349575 -0.24610835 -0.91817933
-0.08492984 -0.035434708 -0.34293076 -0.7050068 -0.19367631 -0.3841328 -0.8215164 -0.8284385
-1.1815833 -1.1736248 -0.17549163 -0.17339636 -0.7186943 -0.5268924 -0.80618036 -0.7180168
-2.2921405 -1.3068664 -1.9870393 -0.4392057 -0.043381937 -0.61240095 -0.6177002 0.0068697785
-0.07750067 -1.0682281 -0.6093776 0.08420412 -0.22870901 -0.84144455 -0.24545597 -0.06358296
-0.6591341 -0.31501624 -1.1352042 -0.046458952 -1.3663708 -0.052189123 -0.69327736 -0.5725292
-0.08125443 -0.95351654 -1.2107556 -0.7256247 -0.56284744 -1.0982646 -0.41798648 -0.30129102
-0.61794937 0.13216186 -0.029854085 -0.003987644 -0.29153255 -0.37364665 -0.60727084 -0.11219742
0.064540416 -0.80676925 -0.018357128 -0.8507931 -0.026394604 -0.40742078 -0.5248265 -1.4565935
-0.21407783 -0.08474707 -0.796705 -0.031337075 -0.52713513 -0.95906067 -0.55169886 -1.0596703
-0.75997365 -0.5666433 -0.96527225 -0.8892298 -1.8629197 -0.16570875 -0.0828624 -0.72586924

network.1.running_mean f4 [512]
00000000: 2988 95be fa9d 3dbe 70a9 8a3e 2c1d 213d
00000010: 59ba ccbe 7711 e6be 8a2d ca3e 1a9d 843c
00000020: d7b9 a23e a6a4 a53e 48ca adbe 030f a7be
00000030: 8e58 80be c64c ab3e 53ee 8fbe f81b bcbe
00000040: 2bc6 903e 532c 973e ebc1 5b3e 5f6d d5be
00000050: df66 9ebe 817c c33e ec24 97be 99b0 f73e
00000060: fdae e1be f91d 2bbe 4d0d 9c3e d141 033e
00000070: d031 9d3e 1e27 de3e 9102 293f 58b5 f8bd
00000080: c4af bcbe b8a1 603e 00d6 813e 8a9c 57be
00000090: bd3a ea3e 1d3d 923e f8d3 133e 8186 a93e
000000a0: 94f8 9abe 6b1c b1be 57d6 a73e d0c1 913e
000000b0: 4884 d1be 5fc9 b7be 312a af3e 1315 14be
000000c0: ef6d 603e c914 46be c5d3 9bbe 277d 8e3e
000000d0: 93bb a3bc d6c4 14be 689d cbbe d229 d1be
000000e0: 1da4 ccbd fded aabe 453b 883e ffb9 78be
000000f0: 9440 9e3e 32bc dfbc dc3b b8be 4fe5 c83e
00000100: bd49 7d3e ded0 8a3e 1f7d 11be ad1a 8dbe
00000110: ee51 d4be e61d 983b 8088 a4be a114 ac3e
00000120: 6827 ddbe 0db4 c33d 9be4 813e 06eb b23d
00000130: 1a6f fb3e 7567 8f3e f42d b93e 548e c8be
00000140: 96d9 90be 685c 40be b7b3 abbe 4c39 2d3f
00000150: 2a81 f93e 3894 fd3e b638 b83c 698c bdbe
00000160: 08bb 5f3e ffc2 623e 454b 6d3e f43f e73e
00000170: 0c0b a63e 8292 a63e 1faa 8dbe edeb c0be
00000180: ba61 923e adc5 d7be e799 823e b913 7ebe
00000190: d5e9 56be fa95 253e 31ed 6e3e ba86 503f
000001a0: 420a 13be dea7 8a3e cf57 ae3e 1878 9cbe
000001b0: 1daa aa3e ae8f a83e 4267 9e3e 02f9 c1be
000001c0: 9bdf 8b3e 3ad5 90be bd64 773e 1403 44be
000001d0: 57de 89be 2a22 aabe d87b 8d3e 896f a5be
000001e0: eb70 dcbd fe6f 1b3c 0504 983e 8cc5 9c3e
000001f0: ef9f 5a3e 2623 b43e e4fd 753e d1f9 823e
00000200: 1635 113f 1081 5a3e 513a 073f c8ef 963e
00000210: e5bb 573e 960b 9b3e e326 893e b3f1 92bd
00000220: 5b3c 86be 5c99 40be f4eb 9fbe 8a76 97be
00000230: cfdd 9cbe 7f3d dc3e 9037 16be 4176 983e
00000240: 3c61 913e 266c 89be 4d38 b0be 341f 973e
00000250: 1675 48bd b679 15be 1cb8 963e 3937 ff3e
00000260: d452 4f3e 537a 9dbe 0a3f 15be 618d b23e
00000270: f1b6 b2be a47d 953e 02d9 aa3e e43b ac3e
00000280: 870d 8f3e 35ca 283e 0c03 933e c9e9 683e
00000290: c0bc c33e 5aaa d6bd bcac 943e 2ffa 0fbe
000002a0: 33cb aa3e 976f 6bbe 3893 c53d 9004 943e
000002b0: 7ad7 0d3f 1d01 fbbd 3a20 cabe 4897 793e
000002c0: 4c71 82be 8d2d b13e e570 963e 5ac1 c3be
000002d0: 8562 d8be e726 20be b657 70be 0f36 833e
000002e0: 2b13 933e 792d 183f 8900 943e 189d 6b3e
000002f0: efa3 563e d171 863e 8d90 303e 6a5d b6be
00000300: e9ae d33d be3e a9be e759 023e ef8e ab3e
00000310: 87a6 c6be 5a02 9a3e ebdf 95be eb33 a23e
00000320: bd88 983e 4026 30be 4a81 7dbe bcca 823e
00000330: 016f 913e 6125 8ebe 7a00 17be f394 833e
00000340: cbad dc3e 3fae 45be f3b0 853e c269 923e
00000350: c43e 093f 4a99 cdbe 259f 883e 2857 3cbe
00000360: 9363 b2be b9a2 2ebe e641 edbe 1423 98be
00000370: 6588 a53e fac7 8fbe 3e83 913e 0abb 32be
00000380: 7fb8 b93e 9b51 823e 4281 acbe 594e 96be
00000390: 4488 2bbc cc92 363e c935 8c3e 1d6c bb3e
000003a0: 4667 6b3e 64f3 5a3e ce1b d33e e880 7c3e
000003b0: d44f a93e c41d e13e aa33 b2be 1339 9a3e
000003c0: 0175 c0be ce6d 993e 274a a7be 68b4 d6be
000003d0: a999 8ebe 4a5e 653e 6c08 9ebe 9e6e a4be
000003e0: 534b c9bd 07e1 c63e bac6 00be b437 64be
000003f0: 4dac 0b3e d4fc 0f3c e48f 59be 1dde 863e
-0.29205444 -0.18517295 0.27082396 0.03933446 -0.39985922 -0.449352 0.3948787 0.016188193
0.3178241 0.3235218 -0.3394339 -0.3262864 -0.25067562 0.3345701 -0.28111514 -0.36740088
0.2827619 0.29526004 0.21460693 -0.41685006 -0.3093786 0.38180926 -0.29520357 0.4837692
-0.44078818 -0.16710652 0.30478898 0.12818076 0.30702066 0.4338922 0.6601954 -0.121439636
-0.3685285 0.21936691 0.25358582 -0.21055809 0.4574794 0.2856225 0.14436328 0.3311043
-0.30267775 -0.34591994 0.32780716 0.2846818 -0.40921235 -0.3589582 0.34211877 -0.14461164
0.21916936 -0.19343866 -0.30435005 0.2782986 -0.019986903 -0.14528212 -0.3976853 -0.4085222
-0.099922396 -0.33384696 0.2660772 -0.24289702 0.30908644 -0.027311418 -0.3598317 0.3923745
0.2473516 0.27112478 -0.14207886 -0.27559415 -0.41468757 0.004642236 -0.3213539 0.3360949
-0.43194127 0.09555826 0.25369725 0.087362334 0.491082 0.2800862 0.36167872 -0.39171088
-0.28291005 -0.1878525 -0.3353555 0.67665553 0.48731357 0.49527144 0.02248798 -0.37021187
0.2184869 0.22144698 0.23173244 0.4516598 0.32430303 0.32533652 -0.27668855 -0.37679997
0.28590184 -0.42143002 0.25508043 -0.24812211 -0.20987637 0.16170493 0.23332669 0.81455576
-0.14359382 0.27081198 0.34051368 -0.30560374 0.3333291 0.3292212 0.30938154 -0.3788529
0.27319035 -0.2828768 0.24159522 -0.19141799 -0.26927444 -0.3322919 0.27633548 -0.32311657
-0.10763725 0.00948715 0.29690567 0.30619466 0.21350072 0.35183066 0.24022633 0.2558122
0.5672163 0.21338296 0.5282336 0.29479814 0.2106777 0.30282277 0.2678748 -0.07175007
-0.26217923 -0.18808502 -0.31234705 -0.29582626 -0.30637977 0.43015668 -0.14669633 0.2977772
0.28394496 -0.26840323 -0.34417954 0.29515994 -0.048939787 -0.1459721 0.2943734 0.4984682
0.2024644 -0.30757388 -0.14574829 0.3487349 -0.34905198 0.2919742 0.3336869 0.33639443
0.27940008 0.16483386 0.28713262 0.22745432 0.38229942 -0.10481711 0.29038036 -0.14060281
0.33358154 -0.22991787 0.096472204 0.2890973 0.55406916 -0.12256072 -0.39477712 0.24374115
-0.25477064 0.34605065 0.29383007 -0.38233453 -0.42262664 -0.1563984 -0.23470959 0.2562718
0.28725561 0.59444386 0.28906658 0.23009145 0.20960973 0.2625871 0.17242642 -0.35618144
0.10336096 -0.3305568 0.12729608 0.33507487 -0.38798925 0.3007992 -0.29272398 0.31680235
0.29791823 -0.17202091 -0.24756351 0.255453 0.28405002 -0.27762893 -0.14746276 0.25699577
0.43101344 -0.19304751 0.26111564 0.28596312 0.536114 -0.40156013 0.26683918 -0.18392622
-0.34841594 -0.17054261 -0.4633934 -0.29714262 0.32330623 -0.28082258 0.28420442 -0.17454162
0.36273572 0.25452885 -0.33692366 -0.2935665 -0.0104695 0.17829436 0.27384785 0.3660592
0.22988614 0.21381909 0.4123215 0.24658549 0.33068717 0.43968022 -0.34805042 0.3012167
-0.37589267 0.29966587 -0.3267376 -0.41934514 -0.27851608 0.2239925 -0.308658 -0.32115644
-0.0982882 0.38843557 -0.12575808 -0.22286874 0.13639946 0.008788306 -0.21246296 0.26341334

network.1.running_var f4 [512]
00000000: 4c01 fd42 a030 6d42 34d1 b042 7b58 7f42
00000010: 66e4 3843 222e 6343 7269 2943 2ce3 6342
00000020: 1d3a f742 2f40 0443 4e19 1643 2649 1043
00000030: 1871 0143 eb80 0a43 5d8d 1d43 318c 2b43
00000040: a3cc db42 7656 bc42 299e 6e42 912a 5543
00000050: 8f7f 1443 21ab 4143 e8f6 f842 81b4 9143
00000060: da09 8e43 6038 7e42 f73e c342 b795 a342
00000070: 06b6 d842 3ca6 7143 4319 dc43 4f8f b741
00000080: bbb1 2f43 30f0 9142 8927 e042 efb9 a242
00000090: 53d0 4e43 dbe4 b742 d900 a342 54c0 0b43
000000a0: e4f3 f942 fc67 6143 1523 f642 af26 bc42
000000b0: 19e3 3943 48b8 2043 de17 1143 f25e 9242
000000c0: 9b67 2442 ecd6 e742 fac0 d142 86f5 c842
000000d0: c9db 1642 7c79 a142 338f 3643 6e30 9743
000000e0: 4d36 ab42 dc51 1743 9d4e dc42 7de5 0243
000000f0: 8c20 1d43 e8b7 0943 ab74 6a43 1efa 5443
00000100: c0d8 9a42 c6af c642 2030 6042 8434 fa42
00000110: 1b7e 9543 378d de42 69ca 0a43 ff07 4a43
00000120: 8e5e 4a43 53a4 4d41 0c1e af42 24de 8b41
00000130: caba 8243 3ddd ca42 23d3 2b43 b494 4243
00000140: ecf2 0643 f21f 9a42 fbe4 0c43 2c0f fa43
00000150: 4697 8443 5896 9543 3b00 4c42 cec7 2943
00000160: 8810 ce41 19d5 6b42 3bcc 9a42 1be3 6643
00000170: e5f1 0643 dbf6 0243 23b4 fe42 9649 2d43
00000180: a2da b642 5f3e 5943 e011 c742 5239 1343
00000190: baf5 c742 c08a 7d42 6e10 a442 4d4a 1844
000001a0: dcb9 8542 923e ad42 b21b 0e43 30f7 0b43
000001b0: 2e10 f742 2190 db42 f1f8 f142 271d 2943
000001c0: 040c a542 f583 f942 5d46 a142 644d 1343
000001d0: 7fef f342 8964 3043 4ba7 b242 404b 0843
000001e0: 3791 1d43 7730 1d42 66c8 d142 d17f ca42
000001f0: 3c25 9c42 e3b3 0943 0066 a742 81a6 a742
00000200: 5c03 ac43 70fe 8f42 618f 8f43 b9d2 c842
00000210: d152 1243 27e3 fa42 7065 d442 814b 9541
00000220: 8d15 4243 10ea 2e42 d2d9 f842 1a77 ee42
00000230: d9cb 0343 af0c 5a43 b899 9c42 c3d0 c642
00000240: 7035 b842 02ce dd42 5458 0d43 0271 ce42
00000250: aca8 1f42 0ba1 9042 22b8 be42 9042 8843
00000260: d2b4 6942 ff69 1043 6796 9142 a1d6 0b43
00000270: ba1a 3243 4256 0143 8665 0f43 928d 0743
00000280: a8ce cf42 92bc 4a42 e734 bc42 59f9 9842
00000290: d3c7 1c43 a13e af42 7bc6 ef42 f62b 8942
000002a0: 1b79 df42 f101 4143 6a44 9042 a93e ed42
000002b0: 92e9 b243 e211 7542 4802 3843 be35 9742
000002c0: ea31 eb42 a746 0d43 d0a4 e642 ddde 2d43
000002d0: d05f 5543 c480 9242 bb26 0a43 0cb2 cb42
000002e0: 5823 a642 6437 c143 acd5 3543 e1c0 8f42
000002f0: 5aff 5c42 0d59 a042 a8ab 6c42 5be5 0f43
00000300: 8ee3 ab42 8173 2143 5986 9c42 4506 f442
00000310: 1bee 8a43 f091 e542 7345 f942 9ee6 e042
00000320: 1ac3 e942 c7b2 8d42 74a8 1443 2b79 9f42
00000330: d2cd f042 42a0 0e43 b4a6 fb42 5e28 bf42
00000340: 22c1 5543 5b55 b342 1542 b042 9c61 e842
00000350: 7466 a343 c1da 9743 125d 9b42 15df e242
00000360: ef22 1c43 fd52 8542 c22a 6f43 f773 1843
00000370: f8ab f742 c5ab 0343 8853 c442 47b1 9d42
00000380: 5f4c 1f43 3dd8 d042 b274 3043 a61b 0843
00000390: 255e 6a43 9a36 b542 e616 d142 9d66 0643
000003a0: 639c e642 2914 5d42 0abb 3b43 bc11 8e42
000003b0: b40f 0143 18bd 6243 e32f 2c43 bf8f 0043
000003c0: 530e 8543 3c26 b942 302e 1343 8971 4843
000003d0: a180 3b43 2057 8f42 8d00 0b43 8947 0c43
000003e0: 20a2 1b42 4f05 0e43 85ae 5542 2ac5 fe42
000003f0: 56f9 b842 a7fa 0843 9cff 3a43 0527 cc42
126.50253 59.297485 88.4086 63.836407 184.89218 227.1802 169.4119 56.971848
123.6135 132.25072 150.09885 144.28574 129.44177 138.50359 157.5522 171.54762
109.89968 94.16887 59.654453 213.16628 148.49828 193.66847 124.48224 291.4102
284.07697 63.555054 97.62298 81.79241 108.355515 241.64935 440.19736 22.944975
175.69426 72.96912 112.07722 81.36315 206.81377 91.94698 81.501656 139.75128
124.97635 225.40619 123.06852 94.075554 185.8871 160.71985 145.09323 73.18544
41.101177 115.91977 104.87691 100.47954 37.714634 80.737274 182.55937 302.37836
85.60606 151.31976 110.15354 130.89644 157.12714 137.71838 234.45573 212.97702
77.42334 99.34331 56.046997 125.10257 298.9852 111.27581 138.79066 202.03123
202.36935 12.852618 87.558685 17.483467 261.4593 101.432106 171.82475 194.58087
134.94891 77.06239 140.89445 500.11853 265.18182 299.17456 51.000225 169.78049
25.758072 58.958103 77.39889 230.88713 134.9449 130.96428 127.35183 173.28745
91.42702 217.24364 99.53491 147.2239 99.979935 63.385498 82.03209 609.16095
66.86301 86.62221 142.10818 139.96558 123.5316 109.7815 120.98621 169.11388
82.52347 124.75773 80.63743 147.3023 121.967766 176.39272 89.326744 136.29395
157.56725 39.29733 104.8914 101.24964 78.07272 137.70268 83.69922 83.8252
344.02625 71.99695 287.12015 100.41157 146.3235 125.44366 106.19812 18.661867
194.08418 43.728577 124.42543 119.23262 131.79628 218.04955 78.30023 99.40774
92.10437 110.90236 141.34503 103.22072 39.91472 72.31454 95.359634 272.52002
58.426582 144.41405 72.793755 139.8384 178.1044 129.33694 143.39658 135.55301
103.903625 50.68415 94.103325 76.48701 156.78056 87.62232 119.88766 68.58586
111.736534 193.00758 72.13362 118.62238 357.82477 61.267464 184.00891 75.604965
117.59749 141.27599 115.3219 173.87056 213.37427 73.251495 138.15129 101.84775
83.06903 386.43274 181.83466 71.87672 55.249367 80.17393 59.167633 143.89592
85.94444 161.45119 78.2624 122.012245 277.8602 114.785034 124.63564 112.450424
116.88106 70.849174 148.65802 79.73666 120.40199 142.626 125.82559 95.57884
213.75443 89.66671 88.12907 116.19064 326.8004 303.709 77.68178 113.43571
156.13646 66.66209 239.16702 152.45299 123.83588 131.67097 98.16315 78.846245
159.29832 104.42234 176.45584 136.108 234.36775 90.60664 104.54472 134.40083
115.30544 55.269688 187.73062 71.03464 129.06134 226.73865 172.18706 128.56151
266.1119 92.57468 147.18042 200.4435 187.50246 71.670166 139.00215 140.27943
38.908325 142.02074 53.42043 127.385086 92.486984 136.97911 186.99847 102.07621

network.4.weight f4 [256, 512]
00000000: ee6a 383e 2a45 71bf b0c3 b4be 9ad2 a33f
00000010: 2c04 e73e 790f c33e 397f 6dbe 89be 2ebf
00000020: 90db a23e 10d8 a1be 89a8 f63e b2b5 523e
00000030: ad7b 45be 1c40 0ebf 1464 2c3d 670a 143f
00000040: 855a 89be b567 53be 5447 f6be 9e4f f33e
00000050: a4bf 273f e675 d2be a069 b83e 22cc 3ebf
00000060: 6fd9 fe3e fecf c6bd 6c0e 7fbe 6077 46bf
00000070: 5416 ae3c f505 03bf edcd b2be 0e05 cbbe
00000080: 65d2 113f 12bd a1be fa12 b2be db0c 4cbe
00000090: f30c 943e 23c0 4abe 47e0 a3be 53e9 8abe
000000a0: 6346 123f 7abf 0ebd d180 a8be 291f 9ebe
000000b0: 721e 4e3e 1a6f bd3d 3bc8 fc3c d33a 1c3f
000000c0: af6a 603f 0a05 013e 3572 fcbe 93b5 ddbd
000000d0: f7e4 e8be 7b13 ab3f 4ae1 b33e 97ba 923d
000000e0: 0b57 223e f899 933e 99cb 213d 5d4a a93e
000000f0: 6307 3c3e 68cc 83bd 415c a23c a8f9 e4be
00000100: c877 d1be f58d ddbd ccd0 003f 6448 da3d
00000110: 4377 cd3d 28a4 1cbf ac8e 863e b9a1 3d3f
00000120: 5c12 723e 8ce6 7a3e 8a01 72be 7605 b13c
00000130: 79f2 1fbf 0195 cb3d 0c82 f7be 8b5f ad3e
00000140: 0144 643e 1724 dcbb b4c9 69be 69f2 a2be
00000150: 649c 0cbf 243f ecbe ddbd 49be 5652 a63e
00000160: 410a 9c3e fff2 0fbf 131b 003e 6f73 60bf
00000170: 5466 07be 6e94 d9be b4c7 1b3d fcf4 073e
00000180: 44e2 69be 1184 df3e a9ea afbe 324e cbbd
00000190: 482d 083f 54a6 fdbe d1df d1be 5a41 17bf
000001a0: 0ef9 adbd 916d 40be 9e0d cbbd 476a 05bd
000001b0: 9fd5 69bc 79fa 59be 33aa 8d3f 2215 9b3d
000001c0: 663e eebd ae3f 1a3f 10f9 95be 5259 73bd
000001d0: 69c1 513f da0e a63e 28f4 db3d 8699 553c
000001e0: 19ae 163e f094 ff3e 2b16 babe 0c75 c7be
000001f0: 66ff 0dbf 22f1 76be 51f5 c6be cb05 cbbe
00000200: 6b9d 2d3e ea40 ddbe 3797 52bf 7fe7 923e
00000210: 3c95 0dbf 757d 9fbc 6674 89be 2674 eb3d
00000220: 3d6b c13c e094 93bc e89a ba3e 9740 693e
00000230: 639c 273f 85a9 80bf e65c 3b3f a8f2 0ebf
00000240: 7666 03bf 016a cc3e a7eb 1d3e d64d 26bf
00000250: 306d 143e 07eb 353e 7801 0dbf 76a5 b3be
00000260: 321c 433f 09ed 2e3e d7f2 253e 6791 403e
00000270: a25a 603e d61a 16bf 4913 dbbe 8202 85be
00000280: 1c13 ebbe bbfb 02be 83cc bdbd 5d0a b3be
00000290: df23 22bf 48dc 0b3f cc9e 2fbe 3f24 bf3e
000002a0: 1d16 76be a515 2b3e ac7b f7be 8212 7bbe
000002b0: 173d d7be 1caa 0a3f 88fd e53c 80c0 3dbe
000002c0: ef0a c03e b848 15bf 6009 613f fa24 9d3e
000002d0: fbd8 78bd 727c 03bf b796 98be 0073 8bbe
000002e0: 3e51 49bd 2916 25bd 970d 043e 0fa7 cbbe
000002f0: c2fe 8ebe d1e4 4abe c091 f4be 00c0 463e
00000300: 0646 983d 6120 333f 6b5f 4bbe ea6b b93d
00000310: 924f a9bd 22b9 42bf acc1 b83e 0feb 98be
00000320: 536c 44bd adf1 b43e a6f0 983d 32ec 68be
00000330: 7a59 c3be 791e a73e e7df d93d 5b64 d2be
00000340: e72b 0abf 7a5e 533e be6c 08bf 81a0 773f
00000350: b38e cabe 72f7 0e3e da4c d2be 99c7 213f
00000360: 6cb1 af3e 18d6 ab3f 957d a83e 8eb6 1a3e
00000370: b2fc 41bd 3ee7 093f ad32 d2bd 566e ba3e
00000380: cdd0 d53b bfcc 493e 68b7 6f3e f8e2 413e
00000390: f996 9a3e a8d6 08bf 6a3b 02be a61c b2be
000003a0: f3f7 58bd 69d5 3f3e 13e2 35be 657f af3d
000003b0: b1be 2bbf 271a 33bf 028c 153d 9385 31bf
000003c0: ee55 173e 6d55 e6bd 9bc9 f63e 629c 4a3e
000003d0: 1ed7 933e 5160 2dbf 87f9 583e a08e 9e3e
000003e0: b6e7 81be 93f1 a03d 8ad0 94be 9079 bf3e
000003f0: 29fe 06bf daf7 0abf 998e 273e ed29 f4be
0.1800954 -0.9424616 -0.35305548 1.2798645 0.4512037 0.38097742 -0.23193063 -0.68259484
0.31808138 -0.31610155 0.48175457 0.20577124 -0.1928546 -0.55566573 0.04208763 0.5782837
-0.26826873 -0.2064503 -0.48101294 0.4752168 0.65526795 -0.41105574 0.36018085 -0.7453023
0.49775264 -0.0970764 -0.24907845 -0.775259 0.021250881 -0.51180965 -0.34922734 -0.39652294
0.5696166 -0.31589562 -0.34780103 -0.19926779 0.2891613 -0.19799857 -0.32007048 -0.27131137
0.5713865 -0.034850575 -0.3291078 -0.30883148 0.20128801 0.092497066 0.030857196 0.6102726
0.87662786 0.12599578 -0.49305883 -0.10825648 -0.45487186 1.336532 0.3513282 0.071644954
0.15853517 0.28828406 0.039500806 0.33064547 0.18362193 -0.06435472 0.01981938 -0.44721723
-0.40911698 -0.10818092 0.503186 0.10658339 0.10032513 -0.6118798 0.26280725 0.74074894
0.23639816 0.24502009 -0.236334 0.02160905 -0.6247936 0.099405296 -0.48341405 0.33861956
0.22291566 -0.0067181694 -0.2283085 -0.3182557 -0.54926133 -0.46141922 -0.19701333 0.32484692
0.30476573 -0.5623016 0.12510328 -0.8767614 -0.13222629 -0.42496055 0.03803225 0.13277048
-0.2284022 0.43655446 -0.3435872 -0.09927024 0.53194094 -0.4954096 -0.4099107 -0.59084094
-0.08494769 -0.18791796 -0.09914707 -0.032572057 -0.014272123 -0.21286954 1.1067566 0.0757239
-0.11632995 0.6025342 -0.29291582 -0.059411354 0.81935745 0.32433206 0.107399285 0.013037091
0.1471485 0.49918318 -0.36345038 -0.38956487 -0.5546783 -0.24115422 -0.38859037 -0.39652857
0.16954581 -0.43213588 -0.82261986 0.28692243 -0.5530584 -0.019469002 -0.26846617 0.11496763
0.023610706 -0.018015325 0.3644631 0.22778545 0.65473 -1.0051733 0.73188627 -0.55839014
-0.5132822 0.39924625 0.15421925 -0.6496252 0.14494777 0.17765437 -0.55080366 -0.35087174
0.762149 0.17082609 0.16205917 0.18805467 0.21909574 -0.586347 -0.4278815 -0.25978476
-0.45913017 -0.1279134 -0.09267523 -0.34968844 -0.63335985 0.54633 -0.1715042 0.3733234
-0.24031873 0.16707475 -0.48336542 -0.24518779 -0.42038795 0.54165816 0.028074995 -0.18530464
0.37508342 -0.58314085 0.8790493 0.30692273 -0.060753804 -0.51361763 -0.29802486 -0.27236176
-0.049149744 -0.040304337 0.12895809 -0.39775893 -0.2792874 -0.19813849 -0.47767448 0.1940918
0.07435231 0.6997128 -0.19860618 0.09053786 -0.0826713 -0.7606374 0.3608526 -0.29866835
-0.04795487 0.35340634 0.07467775 -0.22746351 -0.38154203 0.32640436 0.10638409 -0.4109219
-0.5397324 0.20641509 -0.5329093 0.96729285 -0.39561996 0.1396158 -0.41074258 0.63195187
0.3431505 1.3424711 0.3290831 0.15108702 -0.04736013 0.5386847 -0.10263572 0.36412305
0.006525135 0.1970701 0.23409808 0.18934238 0.30193308 -0.5345254 -0.12717977 -0.34787482
-0.052970838 0.18733753 -0.17762022 0.085692205 -0.67087847 -0.6996178 0.036510475 -0.69344443
0.14778873 -0.112467624 0.48200688 0.19786218 0.2887506 -0.6772509 0.21188937 0.3096819
-0.25372094 0.078585766 -0.29065353 0.37397432 -0.5273157 -0.5428444 0.1636299 -0.47688237

network.4.bias f4 [256]
00000000: aae0 2fb8 9f18 b1b9 167f 173a 9e91 c8ba
00000010: 9f2f dbb9 5709 e839 6878 b8b9 2e88 723a
00000020: 9ff3 c639 cfbe 0b39 2465 0680 6273 41b7
00000030: 993e acb9 7494 7238 c71b bb38 2bbf 4eb9
00000040: 7ba8 fcb9 bfaa 3f39 4ca4 9ab9 0890 afb9
00000050: 4fbc 5637 35a8 23ba 3b31 1e39 e04e 4cb9
00000060: 8cd4 8638 ee7d 62b9 23b8 bd38 81ef 7f39
00000070: 3f6d 0739 020f 9db9 ac3a 72b8 61c8 67b9
00000080: 56f1 0500 3cd6 36b9 fa44 773a 4c9f 22b9
00000090: e232 29ba bab0 90b9 da56 7339 9e56 5639
000000a0: 1445 edb8 4f12 193a a354 56b9 8c62 683a
000000b0: 1a53 79ba a53c 333a 7366 263a b889 a538
000000c0: a74d f139 3871 03ba d4fa 9439 2e93 f5b8
000000d0: 8e6c 9938 416e 4039 6f9f 0db9 b23f 2033
000000e0: ce4c f3b9 832a 3dba e319 9eba 7be8 b0b9
000000f0: caa5 8339 8ffd 9039 a436 aa3a fec5 303a
00000100: 5534 1ab8 36fc 8739 a95f 943a f0d4 8b39
00000110: 2d9c 81b9 51e0 eab9 6cb5 80b9 ed24 7639
00000120: f682 1f3a f6fa 40ba 3db3 3d3a 4fbd aab9
00000130: bbf5 f13a 724d 35b9 7a84 c6b9 3ae1 a3b9
00000140: 48cd 9fb8 ce6f 02b7 5c91 6aba de6e 23ba
00000150: 3d09 8438 4d5d f0b9 b5f2 3ab9 a01c 8238
00000160: 8551 22b9 2229 1637 aa68 1d3a 4116 de3a
00000170: 8800 9fb8 3796 053a 4347 cc39 a33f 99b9
00000180: 7513 d838 117b c138 df09 9638 301e bab7
00000190: 6f25 a638 b1de 7539 6c8f b6b9 10b1 1fb9
000001a0: 92da 69b8 f96c 25b9 d1d9 b739 f4f3 fab9
000001b0: cfb2 09ba 4ac1 9bba 01e4 5c39 d632 af39
000001c0: 64e0 7739 2b86 ca39 fbd4 de39 5fc7 4fb9
000001d0: cf9f 893a 8b52 113a 318e 9c38 7770 8e39
000001e0: d0c0 89b9 e216 22ba 9d77 2aba 0445 ee39
000001f0: 9451 73ba 1e97 c739 58d2 cbb9 9717 aa36
00000200: af6e 0cb8 eadb 2f39 461f 7a39 fdfe 223a
00000210: daf6 573a 9dcc d837 a41f 2d37 da70 2f39
00000220: 7874 58ba 89ca 87b9 44ad 37ba 8616 eeb8
00000230: 77ae 0039 1e44 3d3a f446 b239 86f6 fcb8
00000240: 5bc8 66ba 2398 25b9 29f2 d4b9 cf7f 323a
00000250: 311d d5b9 143a 7839 0ba7 54ba 986e 1bba
00000260: 17a9 9135 7511 c6b9 fc2b 40ba d0ba 43b9
00000270: 68f9 36ba 2e52 5239 1ec6 62b9 5689 003a
00000280: 2579 44b9 dba8 843a 238d b339 f710 ab39
00000290: 9326 1f3a b339 1239 d18a 7e3a cd90 5639
000002a0: ec59 82b8 e02c ddb9 68d1 e839 3217 b4ba
000002b0: bd6d 5939 4c0b ccb8 8b6e 5039 3f0a 3638
000002c0: b315 d737 7f9a 38b8 2c68 fc39 08ea d0b9
000002d0: 42b6 12ba d8bc bc39 d846 afb9 4b89 3fba
000002e0: cf08 cc38 ba7b 8e38 ac8a f0ba 30fe 38b8
000002f0: 8923 bbba 84df 80ba 1fa8 6f34 82ca 79ba
00000300: 6746 b53a 0bfa 9e3a 3ca3 d739 59a7 b138
00000310: 31bc a2b9 4fe0 563a 1484 cab9 a7fe 3eba
00000320: 978e 79b9 5502 80b9 c28b 5f3a 1b3b 573a
00000330: d2f0 55ba b933 4e37 78f0 983a b69a 2eba
00000340: 65ea 88ba 8cf6 20ba d5ea 2c3a 0af5 00ba
00000350: dfc1 2e3a 1601 dab8 c281 5639 b01f 243a
00000360: c4fa 4237 e845 90b9 0c19 5a3a 9a0c 14ba
00000370: 72e7 6c3a 110a 0ab8 1ac3 3bba 37b2 a7b9
00000380: 4c1e e9ba d9c9 db38 6982 d9ba 6160 acb9
00000390: a854 1039 e740 d439 3b68 19b9 3945 e1b9
000003a0: b9b0 4d38 af66 10ba f913 3637 e3d1 7039
000003b0: a3a4 fdb8 fd84 b739 3177 553a 8060 1138
000003c0: 3db5 9539 7b41 ac38 2b71 cb39 22e9 cf39
000003d0: 1b68 11ba 7d5c 493a 176f a7ba 721e f438
000003e0: cd41 8bb9 e9ad dab9 de6f fe3a 08d2 09b9
000003f0: 1a54 7b39 8a66 263a 962a af39 d275 2139
-4.1932486e-05 -0.00033778415 0.000577913 -0.0015302186 -0.00041806416 0.00044257447 -0.00035184924 0.000925186
0.00037947015 0.00013327155 -5.87295e-40 -1.1530561e-05 -0.00032853035 5.7835554e-05 8.922029e-05 -0.00019716907
-0.00048190713 0.00018278787 -0.0002949558 -0.00033485913 1.2799238e-05 -0.00062430213 0.00015086394 -0.0001948434
6.429208e-05 -0.00021599952 9.0465204e-05 0.00024407917 0.000129153 -0.00029956555 -5.775194e-05 -0.00022104524
5.45753e-40 -0.00017436681 0.00094325806 -0.00015508867 -0.00064544205 -0.00027597492 0.0002320664 0.00020440898
-0.000113139075 0.0005839215 -0.0002044016 0.0008864782 -0.0009510979 0.0006837345 0.00063476636 7.893465e-05
0.00046024958 -0.00050141243 0.0002841564 -0.00011709925 7.3158284e-05 0.0001835162 -0.00013506202 3.7310834e-08
-0.00046405796 -0.00072161126 -0.0012062158 -0.00033742547 0.0002510979 0.00027654736 0.0012986255 0.00067433703
-3.67652e-05 0.00025937118 0.0011320013 0.00026670797 -0.00024721157 -0.00044799087 -0.00024549232 0.00023474144
0.00060848834 -0.0007361615 0.00072364864 -0.00032565973 0.0018460074 -0.00017290356 -0.00037864206 -0.0003125759
-7.6199474e-05 -7.774635e-06 -0.0008948052 -0.0006234477 6.295971e-05 -0.00045845882 -0.00017828758 6.204215e-05
-0.00015479892 8.950274e-06 0.0006004671 0.0016943888 -7.58181e-05 0.0005095931 0.00038963006 -0.00029229847
0.00010303307 9.22588e-05 7.154396e-05 -2.2186985e-05 7.9224694e-05 0.0002344798 -0.00034820603 -0.00015229383
-5.575509e-05 -0.00015776222 0.00035066766 -0.00047865475 -0.000525278 -0.0011883166 0.00021065773 0.00033416477
0.00023639348 0.00038628405 0.00042501822 -0.0001981533 0.0010499897 0.0005543611 7.465145e-05 0.00027168143
-0.00026274333 -0.00061832194 -0.0006502809 0.00045446318 -0.00092818704 0.0003806883 -0.00038875896 5.069141e-06
-3.3481683e-05 0.00016771225 0.00023853508 0.0006217806 0.0008238383 2.5844487e-05 1.031897e-05 0.00016731341
-0.0008257101 -0.00025900107 -0.00070067146 -0.0001135292 0.00012272024 0.0007219928 0.0003400367 -0.00012062215
-0.0008803659 -0.00015792302 -0.00040616214 0.0006809206 -0.00040648275 0.00023672759 -0.00081120495 -0.00059292605
1.0852553e-06 -0.0003777851 -0.0007330773 -0.00018666242 -0.00069799135 0.00020057775 -0.00021626844 0.0004903277
-0.00018737146 0.0010121124 0.00034246696 0.000326283 0.00060711167 0.0001394514 0.00097100163 0.00020462573
-6.215632e-05 -0.0004218584 0.00044406508 -0.0013739823 0.00020735613 -9.729582e-05 0.00019877606 4.3401724e-05
2.5640102e-05 -4.4012904e-05 0.000481428 -0.00039847218 -0.00055966165 0.00035998854 -0.00033431384 -0.000730653
9.729119e-05 6.7941335e-05 -0.0018351874 -4.410575e-05 -0.0014277558 -0.0009832238 2.2319772e-07 -0.0009528772
0.0013830186 0.0012128962 0.00041129615 8.4711886e-05 -0.0003103926 0.0008196877 -0.00038626848 -0.0007285871
-0.0002379961 -0.000244158 0.00085276004 0.00082104065 -0.000816119 1.2290599e-05 0.0011668345 -0.0006660627
-0.0010445832 -0.0006140254 0.0006596272 -0.0004919326 0.0006666462 -0.00010395252 0.00020456969 0.00062608253
1.1621687e-05 -0.00027517905 0.00083197723 -0.000564763 0.00090371736 -3.291114e-05 -0.0007162556 -0.00031985503
-0.0017785518 0.00010480331 -0.0016594651 -0.00032878204 0.00013764447 0.00040484147 -0.00014630046 -0.0004296692
4.9040395e-05 -0.0005508465 1.0852696e-05 0.00022966372 -0.00012094646 0.00035003564 0.0008143066 3.4660567e-05
0.00028554528 8.213796e-05 0.00038803494 0.00039655814 -0.0005546824 0.00076813233 -0.0012774196 0.000116404975
-0.0002656117 -0.00041709773 0.0019412001 -0.00013143581 0.00023968556 0.0006347677 0.0003341033 0.00015398048
